model_BRITS_LT.model (torch, 406393 bytes, 36 tensors)

rits_f.rnn_cell.weight_ih f4 [256, 42]
000000 68 55 3c 3e 49 14 93 3e 56 a7 3f 3e 85 d5 1b 3e
       0.18391955 0.28726414 0.18716177 0.1521817
000010 30 b1 b0 3d 80 f4 0a 3b fe 68 2a 3d 53 25 67 3e
       0.08627546 0.0021202862 0.041604035 0.22572832
000020 1a d8 ee 3d 3b 74 00 3e 30 22 33 3e f5 64 1e be
       0.11662312 0.12544338 0.1749351 -0.154682
000030 5e 03 d8 be f9 97 aa 3c 71 79 f1 bd 8f c7 21 3e
       -0.4219007 0.02082442 -0.11790741 0.15798782
000040 67 56 de 3c 65 68 22 3e de 3f 1e 3d 1a 17 00 be
       0.02714081 0.15860136 0.038635127 -0.12508813
000050 91 1d c8 3e c7 e8 9e 3c ea 4c c2 bd f1 3a 75 3e
       0.39085057 0.019398106 -0.094873264 0.23948266
000060 d4 55 3c 3d 67 47 6f 3e cf 5f 0d 3f 96 94 ed 3d
       0.04598029 0.23367082 0.5522432 0.11600606
000070 1e 33 97 3e 1a bc 85 3e 41 42 bd 3d ad 3a f4 3e
       0.29531187 0.26120073 0.092411526 0.47701016
000080 6c ea 98 be 43 59 0f 3e cd 9d 49 be a6 18 4d 3e
       -0.2986635 0.13998894 -0.19689102 0.20028934
000090 fc 48 83 3e 3f fb 54 3e c6 1b c1 bd fa 87 ed 3d
       0.2564162 0.20798968 -0.094291255 0.11598201
0000a0 79 49 a6 3e 21 14 3d be da 04 9f 3d e0 87 bb bd
       0.3247793 -0.1846471 0.07764597 -0.091567755
0000b0 78 7a de 3c 74 22 42 3e 5f a7 6a 3d 16 e5 2d 3d
       0.027158007 0.18958455 0.057288524 0.0424548
0000c0 10 c6 d0 3e 52 1d c2 3e 6d 76 29 be 86 77 f9 bd
       0.4077611 0.37912995 -0.16549082 -0.121810004
0000d0 83 2d 1a bf 8d 8a cb 3e 5d 06 30 be 9b 75 31 3d
       -0.60225695 0.39754143 -0.17189927 0.043325048
0000e0 d7 3d 76 3c b5 e3 77 be 2e 7e 99 be 3c 65 c5 bd
       0.015029392 -0.24207957 -0.2997908 -0.096384495
0000f0 2c eb 79 bd ba 09 fa 3d 87 f8 63 bd 38 c0 8d 3d
       -0.061015293 0.122088864 -0.055656936 0.069214284
000100 24 36 2d 3e 47 c6 b8 bd 1a bc ee bd 5c 44 d3 bb
       0.16915184 -0.090221934 -0.11656971 -0.006447358
000110 ce a6 c4 bd a7 39 d0 bd 69 41 d1 bd 01 aa a2 bd
       -0.09602128 -0.10167246 -0.10217554 -0.07942582
000120 58 61 80 3d 14 0e 93 3d be a0 7b 3c 46 76 8e bd
       0.06268567 0.071804196 0.015358148 -0.069561526
000130 26 de a2 bc f6 04 79 3d 79 b9 f8 bd 33 76 d1 3d
       -0.01988132 0.060795747 -0.12144751 0.10227623
000140 b0 b4 30 3e df ab b0 bb 3c 75 46 3e 38 55 28 3d
       0.17256427 -0.0053915824 0.19380659 0.041096896
000150 3c 62 8a 3c 91 4b 26 3d 53 01 6c 3b 3a 64 cc 3d
       0.016892545 0.04059941 0.0036011531 0.09980054
000160 6b 6c 41 be bd 97 e8 bd af 7f 3a bd 99 c6 40 3e
       -0.18889014 -0.11357067 -0.045531925 0.18825759
000170 3b a2 b9 bd de 98 cb 3d 57 5b d0 bd df 29 11 bd
       -0.09064146 0.099412665 -0.10173672 -0.035440322
000180 51 42 f1 3c be 14 85 be db 34 07 3e 07 be d9 3d
       0.029450567 -0.25992388 0.13203757 0.10631948
000190 16 2e 42 bc 68 3d 01 3e f7 c7 3c 3d 8a b4 02 3e
       -0.011851808 0.12621081 0.04608914 0.12764183
0001a0 38 9e 0e 3c 39 16 ac 3d 90 d0 7d bc 82 3f 7e 3c
       0.0087047145 0.08402676 -0.01549162 0.015518071
0001b0 18 eb 14 bd e4 d1 d4 bd d1 c8 47 be c2 ec 99 bd
       -0.036357015 -0.10391596 -0.19510199 -0.07515861
0001c0 e8 6f 2b bc dc 30 33 3e 4e 6e 0c 3d c8 eb d2 bd
       -0.010463692 0.17499107 0.034284882 -0.10298878
0001d0 38 18 31 be d0 89 de bb cf 82 b0 3d 50 2e 3d bd
       -0.17294395 -0.006791331 0.086187 -0.046186745
0001e0 6c 7f 25 be 93 f2 8f bd c6 ff d0 bc 64 28 22 be
       -0.16161889 -0.07028689 -0.025512587 -0.1583572
0001f0 26 7e d2 bb ee cd 65 3e fa 17 74 3d 88 d5 09 bd
       -0.0064237295 0.22441837 0.05959318 -0.033650905
000200 ab 2e 90 3d 35 fc 87 3d eb fe 9a bd 18 b6 6d 3e
       0.07040151 0.066399015 -0.07568153 0.23213995
000210 36 a8 02 3d 02 85 7c 3e ed 18 a4 3e 38 86 8d 3e
       0.0318987 0.24660113 0.32050267 0.27641463
000220 3d 05 7b be a7 cf cd be 03 c1 e0 bd c7 d0 a7 3c
       -0.24513717 -0.4019749 -0.10974314 0.020485295
000230 d1 60 c9 3c 86 64 8c 3e 0d b4 83 3e 8c 72 cd 3c
       0.024582298 0.27420443 0.25723305 0.025079034
000240 c0 73 f8 bd 9b 4c bd bd 0e 10 f5 bd 75 7a c3 3e
       -0.121314526 -0.09243127 -0.11965953 0.38179365
000250 5b f2 3d 3d ae 87 51 3d 53 5e 3b 3e 2b f8 f5 3d
       0.046373706 0.051154785 0.182977 0.12010225
000260 81 b5 4d be b4 81 e1 3d 2b 87 63 3e 3b 64 a3 3d
       -0.2008877 0.11011067 0.22219531 0.07978102
000270 b5 ec 07 be ab c2 21 be 25 e3 0c 3d 5f e9 59 3e
       -0.1327389 -0.15796916 0.03439631 0.2128043
000280 1d 91 0c 3e aa 1d 80 3e f6 6d 5a 3c 11 99 10 be
       0.13727231 0.25022632 0.013331881 -0.1412089
000290 5a 1b 6b 3c 24 4a 22 bd 5a f9 8b bd 28 a3 f0 3e
       0.014349783 -0.039621487 -0.068346694 0.46999478
0002a0 95 bc 06 3e 3f 92 9b 3e b6 50 8f bd 77 00 63 bd
       0.13157876 0.30385014 -0.06997816 -0.055420365
0002b0 f5 71 80 bc 51 f2 39 3d 30 cc 49 3e 12 0d 0d 3e
       -0.015679339 0.045397107 0.19706798 0.13774517
0002c0 78 11 98 be 96 61 e6 be b0 d1 df 3e 72 bc f1 be
       -0.29700828 -0.44996327 0.43714666 -0.47214085
0002d0 7e f4 30 bf c0 87 01 be 42 05 b2 3e 86 9c aa bd
       -0.69123065 -0.12649441 0.34769636 -0.08330636
0002e0 d7 73 0e be 22 71 d6 3d 1d 2a bd 3d 45 10 6d 3d
       -0.13911377 0.10470797 0.09236548 0.057876844
0002f0 87 7f e9 3d 88 67 a4 bd 03 9f 4a bd 89 f6 60 3d
       0.11401277 -0.080275595 -0.04946805 0.054922614
000300 e0 ae 0a be b2 c9 ee 3d 34 ac a3 3c 15 02 98 3d
       -0.13543272 0.11659564 0.019979574 0.07422272
000310 99 48 7f 3e 10 0a 41 3b b2 86 3c 3e 58 e2 50 3d
       0.24930038 0.002945546 0.18410757 0.05099711
000320 80 68 04 be c1 bf 56 be a7 fb 21 3e f4 2e 0c be
       -0.12930489 -0.20971586 0.15818654 -0.13689786
000330 2e 53 01 3e aa 3e 33 3d f0 7d ee bd 4d e6 8e 3e
       0.12629387 0.043760933 -0.116451144 0.2791008
000340 76 f4 6a 3e 55 f2 8a bf 11 c3 ff bd 90 34 0d 3e
       0.22944817 -1.0855204 -0.12488378 0.13789582
000350 86 b2 a8 bd f6 ab 47 be 02 43 1c 3e 89 83 f5 3d
       -0.08237176 -0.19499192 0.15259936 0.11987979
000360 f9 9f 20 3d 79 72 0e 3e 86 b3 67 bd f6 98 3c be
       0.03921506 0.13910855 -0.05656769 -0.18417725
000370 e6 5c 93 3d 2f 54 d7 3c 61 2c 07 3e 4d 6f df 3d
       0.07195453 0.026285259 0.13200523 0.10909901
000380 73 d9 33 3e 46 6c 51 3e 7f b7 83 3e 62 53 05 3f
       0.17563419 0.2045146 0.25725934 0.5208036
000390 72 da 9c 3d 56 dc 6f 3d b3 6a 0d 3e 84 6b cf 3d
       0.07658853 0.058559738 0.13810234 0.10127929
0003a0 e6 5f 98 3d 74 11 1a 3e 1e 2c 20 bd 85 30 55 bd
       0.07440166 0.1504572 -0.039104573 -0.052048225
0003b0 8a 44 23 3d 5c 81 25 3e 47 5d a8 3d 30 c3 bc 3b
       0.039860286 0.16162628 0.08220916 0.005760573
0003c0 c5 4c 09 be 9b fb 9d 3d 40 70 17 3c 61 dc a7 3d
       -0.13408192 0.077140056 0.009243071 0.08196331
0003d0 ed 49 36 bc b6 e3 47 3e 3f 90 70 3d 18 4a a2 3d
       -0.011126024 0.19520459 0.058731314 0.079242885
0003e0 71 55 29 be b7 06 f3 bc 20 55 3b 3e 6e 36 41 be
       -0.165365 -0.029666288 0.18294191 -0.1886842
0003f0 b1 be 04 3e 0f ae 70 bd a8 9e 4a 3e 53 61 ef 3d
       0.12963368 -0.058759745 0.19787085 0.11688485

rits_f.rnn_cell.weight_hh f4 [256, 64]
000000 5d eb c4 be b1 4f bd 3e f3 7b 92 3c 28 6b db 3e
       -0.38460818 0.36974862 0.01788137 0.4285519
000010 fb cd 69 bf d2 3e 0e 3e f5 97 af bd 74 b2 07 be
       -0.91329926 0.13891152 -0.085739054 -0.13251668
000020 6d 0c 4b 3d 46 d1 d8 bd c7 6e 02 3f b2 41 75 3e
       0.049572397 -0.10586791 0.5095028 0.23950842
000030 93 0f 5d 3d 9f c8 47 be d9 d0 4b be ea 91 9f be
       0.05396993 -0.19510125 -0.19903888 -0.3116601
000040 28 66 3a 3e b8 d7 cd 3e 49 fa 38 3e e6 d0 22 bf
       0.18203032 0.40203643 0.18064226 -0.63600004
000050 f7 03 f2 bd a1 32 ac 3d 30 d0 18 bf 94 29 d3 3e
       -0.118171625 0.08408094 -0.5969267 0.4124266
000060 4a 3c ab 3d 9f 03 d4 3d 29 ae c8 3e 81 25 9b bd
       0.083611086 0.10352253 0.39195374 -0.07575513
000070 26 72 e6 3b c7 ff d5 bd d5 29 39 bf 43 ce 7a 3e
       0.0070326505 -0.10449176 -0.72329456 0.24492745
000080 ce 95 2a bf 83 b4 23 bd ae 85 10 3f b7 eb 43 bc
       -0.66634834 -0.03996707 0.5645398 -0.011958054
000090 22 e2 fd bd 87 66 6e 3e 3f 98 86 be 7c 26 da 3e
       -0.12396647 0.23281299 -0.2628803 0.42607486
0000a0 89 63 f6 3d c8 62 af be 30 8f a8 3d 1f f0 28 bb
       0.120307036 -0.34255052 0.08230436 -0.002577789
0000b0 84 aa a0 be 59 83 09 3f 88 9e 28 3e bf dd fe bc
       -0.31380093 0.53716046 0.16466725 -0.031111596
0000c0 95 7c 59 bf 8f 9f 83 bd 3f 8c a2 be 63 74 8a 3e
       -0.8495572 -0.06426918 -0.31747624 0.2704192
0000d0 f9 d2 83 3d 70 fa 85 3e 43 f6 92 3e 94 8a 27 3f
       0.06436724 0.2616763 0.28703508 0.6544583
0000e0 91 cb e0 be 12 c3 46 be 14 b5 45 bf a9 9e 1a bf
       -0.4390531 -0.19410351 -0.7722943 -0.60398346
0000f0 64 03 85 3e 32 38 91 3e 23 c6 af 3e db 61 64 be
       0.2597915 0.28363186 0.34330854 -0.22302954
000100 ec ef aa bd 60 e4 80 bc fb 4a 3d 3e ab 4a 68 3e
       -0.08346543 -0.015733898 0.18485634 0.22684734
000110 eb 26 cd bd 5b b4 62 bd 99 cd 68 be b5 55 42 3f
       -0.10017189 -0.05534778 -0.2273468 0.7591203
000120 cb 22 21 3e f0 bf f2 bd e3 db 84 3e df ae c5 be
       0.15735929 -0.118530154 0.2594901 -0.3860998
000130 90 fa 39 3e 12 04 f9 3d 42 e4 3e bc 44 1c 94 bc
       0.18161988 0.121589795 -0.011651101 -0.018079884
000140 c8 4d 9f 3e bf 1c 83 3e a5 69 d5 be f2 b5 a6 3e
       0.3111403 0.2560787 -0.41682163 0.32560688
000150 83 07 75 3e b7 da 94 bd 42 00 2c 3e 8f ba d6 bd
       0.23928647 -0.07268279 0.16796973 -0.10484802
000160 39 d3 f5 3b 46 7f be bc fc 76 c8 bc ec b4 3a be
       0.0075019863 -0.023254048 -0.024470799 -0.18233079
000170 63 a8 1b 3f 97 f9 dc 3e e8 1b cf 3e f6 2f 09 3f
       0.6080381 0.43159172 0.40450978 0.5358881
000180 90 ba af 3d e2 de f2 be 5f bc 0a be ee 7a de 3e
       0.08580506 -0.4743567 -0.1354842 0.43453163
000190 eb f8 e4 bd e3 06 1b be 7c 9e 2e 3e 51 75 99 3e
       -0.1118029 -0.15139346 0.17052644 0.29972318
0001a0 d5 fa 30 bf 77 17 2a be 7b 62 c8 3d 83 c8 fb 3c
       -0.6913274 -0.16610514 0.09784409 0.03073526
0001b0 ed 14 01 3f d9 8b 2a be 18 9f e6 3d e9 a9 1b 3e
       0.50422555 -0.1665491 0.112608135 0.15201534
0001c0 49 36 da 3e 2c 71 85 3e 19 40 75 3e cc 41 42 3e
       0.4261954 0.26062906 0.23950233 0.18970412
0001d0 22 e6 0f 3e 7a c9 7e be e4 1f da 3d 4c b3 d5 bd
       0.14052632 -0.24881545 0.10650614 -0.10434589
0001e0 c3 1d ad 3e 44 bf 6f 3f 67 35 22 bc b9 53 07 3e
       0.3381177 0.93651223 -0.009900427 0.13215531
0001f0 09 ce cf bd af f0 69 3e 1e ac d8 3d 05 92 e8 bd
       -0.1014672 0.2284572 0.10579704 -0.11355976
000200 81 29 3b be 8a 70 20 be d9 c0 1b be e4 fd fe bd
       -0.18277551 -0.1566793 -0.15210284 -0.124507695
000210 ef 12 83 be 88 95 bb bd 4b ba 04 3e b5 da a7 be
       -0.25600383 -0.0915938 0.1296169 -0.32784048
000220 ed 72 76 bd 7b 64 24 3e 0d ee e0 3d eb d0 be 3d
       -0.060168196 0.16053955 0.109829046 0.09317192
000230 0d 80 14 bb 6e 05 e5 bd bd db b4 3c f8 65 8d bd
       -0.0022659332 -0.11182676 0.022077436 -0.069042146
000240 2c 22 65 be 28 1f 8c bc 6d 79 80 bd b0 74 33 bb
       -0.22376317 -0.0171047 -0.0627316 -0.0027382784
000250 96 02 15 3c 10 51 a6 bb b7 6d 54 bc f8 15 49 be
       0.009094855 -0.0050755814 -0.012965611 -0.19637287
000260 1b a6 93 3b 17 69 61 3e 4b 80 2e 3e 81 1c 02 3e
       0.0045058853 0.22012745 0.17041127 0.12706186
000270 48 4e ba 3d ad 58 2f bc 08 7a a8 be 1e 6f a3 bd
       0.09096962 -0.010702294 -0.32905602 -0.07980178
000280 4b 4c 67 3e 68 5d ef bd 92 77 3e be d7 e6 2f be
       0.22587697 -0.11687738 -0.186003 -0.17177902
000290 df 39 b3 bd 53 43 34 3e 0e 6f a0 3d d3 02 64 be
       -0.087512724 0.17603807 0.07833682 -0.22266702
0002a0 db e0 1d 3d 34 a1 af 3d 94 75 01 3e 17 30 d6 3d
       0.038544517 0.08575669 0.12642509 0.10458391
0002b0 68 c7 b8 3b e4 71 21 bd 86 9b 08 bc fa e9 42 3d
       0.0056390055 -0.039415255 -0.008337861 0.04758642
0002c0 ed e2 59 be 7a 37 02 be 2c b1 88 3c d0 ee c9 bd
       -0.21277972 -0.12716475 0.016686045 -0.09860003
0002d0 33 a7 6d 3d 45 6e e6 be 9c c6 ad be ea b8 9c bc
       0.05802078 -0.45006004 -0.3394059 -0.019131143
0002e0 6a ef 96 be 0e 1d 79 3b 42 cb 25 be 1a 65 b2 bd
       -0.29479533 0.0038011703 -0.16190818 -0.0871069
0002f0 53 65 41 be 24 cb 27 be a8 0a 45 3d 2a 25 2d 3e
       -0.18886308 -0.16386086 0.048105866 0.16908708
000300 6b 42 84 be 68 74 b3 bc c3 f7 d5 3d 41 8b b7 bd
       -0.25831923 -0.021906093 0.104476474 -0.089621074
000310 c6 60 58 be ae ec 4a 3e 87 42 02 3e c4 bb d0 bc
       -0.21130666 0.19816849 0.1272069 -0.025480159
000320 3f c5 88 be 4f 15 27 3e 95 cb 93 3e fd ee 93 3d
       -0.26712987 0.16316722 0.28866258 0.07223318
000330 b1 fb 02 3f 68 d8 4f be 7d 9d 84 3e a0 c7 01 3f
       0.511653 -0.20297396 0.25901404 0.5069523
000340 be 57 f0 be 9f a9 8e be cd 9a 1e be 1f 8b 1a be
       -0.46941942 -0.27863786 -0.1548874 -0.15092133
000350 e6 08 b9 3e 06 fb b1 3d 1b be e5 3e 5e 18 df be
       0.361396 0.08690457 0.448716 -0.43573278
000360 e8 4d 23 3e ca d4 1a be ae 80 78 be 03 12 d9 bc
       0.15947688 -0.15120235 -0.24267837 -0.026497846
000370 6f e6 15 be c7 8e 9c 3e 03 a8 45 be 8e c1 93 3e
       -0.14638685 0.3057768 -0.19302373 0.28858608
000380 03 86 43 3d 9a 0e c4 3c d1 81 b5 3d 9f 7c b1 3e
       0.047735225 0.023932744 0.08862651 0.3466539
000390 86 25 13 bf b4 3d a1 3d dc 03 32 bf aa 4a 25 bd
       -0.5747913 0.07873097 -0.6953714 -0.04035441
0003a0 a7 1c 8f be 19 da 26 bd c7 c5 9c bc 10 c5 a6 be
       -0.27951548 -0.040735338 -0.019137276 -0.32572222
0003b0 d7 2f a7 bd 5f 19 80 3f 14 39 df bd 86 94 7e 3d
       -0.081634216 1.0007743 -0.10899559 0.06215336
0003c0 0b 08 02 3e a9 9b b2 3d 13 53 bd 3d 08 fe 32 3e
       0.1269838 0.08721096 0.09244361 0.17479718
0003d0 d9 80 04 3d d5 17 57 be 0e 9c a1 be f5 58 ca be
       0.03234944 -0.21005185 -0.31564373 -0.39520994
0003e0 53 cf 18 bf 84 7d 99 be 1c 2f 33 be 58 82 d1 3e
       -0.5969135 -0.29978573 -0.1749844 0.40919757
0003f0 a9 db 24 3e 93 c8 43 be f2 07 7a 3d 92 ab 15 be
       0.16099419 -0.19119482 0.061042733 -0.1461623

rits_f.rnn_cell.bias_ih f4 [256]
000000 de 25 be 3d 7f f4 16 3e 86 27 fb bd 25 ec 7f 3d
       0.09284566 0.14741705 -0.12263398 0.062481064
000010 b3 c3 52 3c 46 8b c8 3d 4b 4a 12 3e d0 3e dd 3d
       0.012864041 0.09792189 0.14286153 0.10802996
000020 1a 4a b8 3c 83 5a 1b 3e a1 05 31 3e 6c 8e 30 3e
       0.022496272 0.15171246 0.17287304 0.1724183
000030 66 fb 7c 3c 99 88 44 3e 1a 26 98 3d 50 68 ee 3d
       0.015440797 0.19192733 0.07429142 0.1164099
000040 49 61 25 3e 91 4f 32 bd 73 fd b7 3d 01 14 30 3e
       0.16150393 -0.04353291 0.089838885 0.17195131
000050 18 c0 3a 3c 21 e0 e7 bc ad b4 8d 3d ad 5a 62 3d
       0.011398338 -0.028305115 0.06919227 0.055262256
000060 61 71 d9 bd 78 c4 4e 3d 08 c7 31 3e ce 6f 23 bd
       -0.106173284 0.050480336 0.1736108 -0.039901547
000070 7d 25 2e 3e 0d a2 8d 3d 72 10 3a 3e 3a 67 a0 3d
       0.17006488 0.06915674 0.18170336 0.07832189
000080 ae 7b 6d 3c 08 36 f1 3c de fd 70 3c dd 2f cb 3d
       0.01449482 0.02944471 0.014708964 0.099212386
000090 cf 82 c7 3c d1 7f 82 3d d8 cb 25 3e 89 9e 65 3e
       0.024354367 0.06372035 0.16191041 0.22423758
0000a0 e4 c5 53 3e eb 99 5a 3e 33 a2 7a 3d a3 d2 33 3e
       0.20680958 0.21347778 0.06118984 0.1756082
0000b0 84 2e 9d 3d 75 03 5c 3d 63 35 99 3d fa e8 a2 3d
       0.07674888 0.053714234 0.07480886 0.07954593
0000c0 8a aa 28 3e 6a d6 08 bc ba f8 75 3e 58 b8 2e 3e
       0.16471305 -0.008351902 0.24020663 0.17062509
0000d0 63 e5 62 3e 45 ef 33 3e a3 38 0a bd 15 e3 43 3e
       0.22157817 0.17571743 -0.03374542 0.19129594
0000e0 39 1b 49 3d 86 3c 2c bc 98 f9 89 bd a0 84 92 3d
       0.049098227 -0.010512477 -0.06737059 0.071542025
0000f0 cc a5 44 3e c8 54 60 bc 42 e5 5b 3e 58 80 1c bd
       0.19203871 -0.013692088 0.21474174 -0.038208336
000100 9d 69 57 3e 76 b5 2d 3d 2a bb 19 3e 58 8e ae 3c
       0.21036382 0.042409383 0.15012804 0.02130811
000110 e4 a0 09 bc e7 30 37 3d 12 5d 1a 3d f1 32 04 3e
       -0.008400176 0.04472437 0.037686415 0.12910058
000120 a9 29 c8 3d f8 55 97 bd 87 55 92 bd 33 08 14 3e
       0.09773571 -0.07389444 -0.07145219 0.14456253
000130 05 8a 0e 3e 24 fe b7 3d d7 b8 03 3e 33 28 e0 ba
       0.13919838 0.0898402 0.1286348 -0.0017101824
000140 11 f0 20 3d 5f 02 29 bd e5 55 33 3e 1b 58 6a bd
       0.039291445 -0.041262027 0.17513235 -0.05721293
000150 a5 ca 16 3e 74 8f e7 3b 53 a2 e5 3c 0e 67 b3 bc
       0.1472574 0.0070666615 0.028031504 -0.021899726
000160 9a 69 b2 3d f8 35 1d 3e 6f 9b 01 be 1c cc f5 3d
       0.08711548 0.15352619 -0.1265695 0.120018214
000170 eb c4 a7 bd 9c 0c 03 3e 71 62 a0 39 cd 94 2b 3d
       -0.08191856 0.12797779 0.00030590923 0.041889954
000180 cd 62 0b 3c 3f 82 1c bd f2 6c 00 3e d4 78 a1 bd
       0.008507443 -0.03821015 0.1254156 -0.07884374
000190 75 32 10 3e 81 87 69 3e 3b 88 19 bd c8 7b 64 3e
       0.14081748 0.22805597 -0.037483435 0.22312844
0001a0 40 63 e1 bb f6 bd 9b 3e 7a 27 44 bd ef 0f ef 3c
       -0.0068782866 0.30418366 -0.04788921 0.029182402
0001b0 ea 3f 83 3c 5a ae d7 bc 1c 75 bf 3d 44 63 20 bd
       0.016021688 -0.026328254 0.09348509 -0.039157167
0001c0 30 99 41 3d 2a 61 ae 3d 53 88 0c 3e 64 01 ca bc
       0.04726523 0.08514626 0.13723879 -0.024658866
0001d0 f1 d9 3c bd 84 07 71 3d 9f ce b8 bc 97 14 d0 3d
       -0.046106283 0.058845058 -0.022559462 0.10160177
0001e0 0a ee ad bc e7 14 a8 bc d8 b9 30 be 2e e7 83 3c
       -0.02123167 -0.02051778 -0.17258394 0.016101446
0001f0 33 69 a9 bd 3a a3 8b 3d 10 88 5a 3d dd bb 0e 3e
       -0.08272018 0.06818242 0.053352416 0.13938852
000200 07 10 5e 3c ad 22 83 bd 33 dc 76 3d 71 c2 58 bc
       0.013553626 -0.06403098 0.060268592 -0.013229952
000210 bf f6 c3 bc 27 ee fe 3c 87 bd 45 3d 63 9b 83 3c
       -0.023921369 0.03111942 0.04827645 0.016065305
000220 ff 6b f8 3d e6 87 41 bd 98 62 ad 3c 86 2a fd 3c
       0.121299736 -0.047248743 0.021165177 0.030904066
000230 04 23 8b 3c 55 0a f6 3d 05 b7 c4 3d 1d 5e e1 3d
       0.01698447 0.120136894 0.09605221 0.11004279
000240 cd 9e 6e bc ed ac be bd be 6b f1 bc 0e 59 f5 bd
       -0.014564228 -0.09310327 -0.02947032 -0.119798765
000250 c5 ed e9 3d 3e 50 94 bd 27 ae 4c bd 43 a4 a0 3d
       0.11422304 -0.072418675 -0.049970772 0.078438304
000260 c6 8c 1d bc 4f af 92 3d b2 35 7f 3d 7d aa b8 bd
       -0.0096160825 0.07162344 0.062307067 -0.09016893
000270 bd c1 d4 bb 90 40 79 bd 75 17 0c bd 51 26 1d bd
       -0.006492822 -0.060852587 -0.034202058 -0.03836662
000280 6f 0a be 3c 34 11 fd 3d a9 a0 be 3b a3 53 31 be
       0.023198335 0.12356797 0.005817492 -0.17317061
000290 e1 3b ba bc cf 34 6f be 65 de d4 3d bc 25 da 3d
       -0.02273363 -0.23359989 0.10393981 0.106517285
0002a0 e2 cc 5c bd 8b ee 31 3e eb 4c 2d bd 9c 38 a1 bd
       -0.05390633 0.17376153 -0.042309683 -0.078721255
0002b0 b3 2a cd 3d 51 c3 b1 bd cd 27 09 bc 2b e3 d5 3d
       0.1001791 -0.08679832 -0.008371306 0.104437195
0002c0 7b 84 b2 3d 7a 0e ca 3d 35 06 68 bd ec 2c 28 3e
       0.08716675 0.098660424 -0.056646544 0.16423386
0002d0 d5 92 08 bd e2 11 2c 3e f2 30 69 bc b3 1a 52 3d
       -0.033343155 0.16803697 -0.014232861 0.051294994
0002e0 fa a3 a3 3b ac de c3 bd 01 66 44 bd 73 dd 91 3d
       0.0049939128 -0.09563956 -0.04794884 0.07122316
0002f0 1e 5e 8e 3d 83 be 03 3d 59 72 b6 3d e0 6e fa bd
       0.06951545 0.032164108 0.08908529 -0.12228179
000300 50 75 d6 3d 2a 21 49 3e f6 79 ce bb 1c d9 05 3e
       0.10471594 0.19641557 -0.00630116 0.13071102
000310 87 2b b9 3d cc a7 1e 3e 9f da 4f 3e bc 23 c1 3d
       0.09041505 0.15493697 0.20298241 0.09430644
000320 0d 9a 7f bb c7 fc 37 bd 1e c9 77 3d 70 82 f5 3d
       -0.0039001734 -0.0449188 0.060494535 0.119877696
000330 29 04 eb 3d 77 ad 0e 3e 4f ea 2f 3e ae 23 3c 3e
       0.11475403 0.13933359 0.17179225 0.18372986
000340 df 85 52 3e d1 e2 d6 bc 3e 87 02 3e 34 8c bd 3d
       0.2055888 -0.026231201 0.12746903 0.09255257
000350 3d 55 80 3e c2 ea 8f bd 25 f9 f3 bc 02 c3 26 3e
       0.25065032 -0.070271984 -0.029781887 0.16285327
000360 28 12 3f 3d 6e 48 6b 3d 8a 5a 10 3e 3e 21 24 3d
       0.046648175 0.05744212 0.14097038 0.040070765
000370 eb 5d 69 3d 84 28 59 3d d1 72 68 bc 2f 24 32 3e
       0.056974333 0.053017154 -0.014187531 0.17396615
000380 8a 32 f9 3d cd c0 eb 3d 78 7c 5d 3e 3c 9c b7 3d
       0.12167843 0.11511383 0.21629512 0.08965346
000390 ed 44 eb 3b 90 87 5e 3e e2 d7 b8 3c 1f f6 3c 3e
       0.0071798475 0.217314 0.022563878 0.18453263
0003a0 fb 6c 8c 3e 40 a1 53 3e 9f 51 d7 3d dc e6 d7 3d
       0.27426895 0.2066698 0.10513615 0.1054208
0003b0 2a 5d 66 ba 26 60 3e 3d 12 f1 4a 3e e5 62 f3 3c
       -0.0008787686 0.046478413 0.19818524 0.029710243
0003c0 37 56 ac 3d 4b f5 13 3e 14 b3 32 3e 67 29 6e 3d
       0.08414882 0.1444904 0.17451125 0.058144953
0003d0 f5 0b 03 3e 09 89 4a 3e 57 de 6c 3e c5 f9 62 bc
       0.1279753 0.19778837 0.23131691 -0.013853495
0003e0 1c 4b 87 3e 02 3e ce 3d 19 f6 0d 3e 82 c4 36 3e
       0.2642449 0.10070421 0.1386341 0.178484
0003f0 af 53 20 3e a6 76 03 3e aa e1 59 3d bc cf 96 3e
       0.15656923 0.1283823 0.053193726 0.29455364

rits_f.rnn_cell.bias_hh f4 [256]
000000 2e 68 3b 3e aa f7 b5 3d ce aa 7c 3d 57 32 30 3e
       0.1830146 0.08885129 0.06168633 0.17206703
000010 cf 61 97 ba 07 4d 25 3e bc dd ba 3d 46 8e b1 3d
       -0.0011549535 0.16142665 0.09124324 0.08669715
000020 20 8d 07 3e 0c cf 0b bd 54 a3 08 3e 71 8b e0 3d
       0.13237429 -0.034133002 0.13343555 0.10964096
000030 bb 04 c0 3c ff 52 bc 3d d1 12 02 bd a5 58 82 3e
       0.023439756 0.09195518 -0.031756226 0.25458255
000040 19 ea 80 3d 35 da 8f 3d de 72 4e 3e 99 0b 4d 3e
       0.062946506 0.070240416 0.20161006 0.20023955
000050 cd e9 06 bd e7 97 ac 3d 94 c0 c6 3b 1b af b7 bc
       -0.032937814 0.084274106 0.0060654376 -0.022422364
000060 7d 1f 2a bd bd 60 b3 3d 25 12 9c 3d d6 94 7d 3d
       -0.041533936 0.08758686 0.07620648 0.06190952
000070 b0 48 73 bd 1f 11 b5 3d 34 39 c7 3d a8 94 fb 3d
       -0.059395492 0.08841156 0.097277075 0.12284213
000080 d3 51 ca 3d 74 5a 91 bd d6 7b 27 3d 6d 23 d5 3d
       0.09878888 -0.07097331 0.040889584 0.104071476
000090 c2 0a 48 3e 32 15 1f 3e fd 9e 9d 3d 87 90 6b 3e
       0.19535354 0.15535429 0.0769634 0.23004352
0000a0 9a 96 2a 3e ce 55 af 3e 90 0f 31 3d e3 b6 c9 3c
       0.16659012 0.3424515 0.043227732 0.02462334
0000b0 e2 81 b2 3d d7 e0 8a bb 74 69 70 3e da 48 04 3c
       0.087161794 -0.004238229 0.23477727 0.00807401
0000c0 7c 04 11 3e 4f 0f 2c 3e 0d 2f 23 3e 14 ee 1e 3c
       0.14161867 0.16802715 0.15935917 0.009700317
0000d0 fd de 95 3e 59 1d 30 3e 6e 4d c2 3d 28 9e e3 3d
       0.2927169 0.17198695 0.09487425 0.1111415
0000e0 e3 50 5d 3e 78 9a 18 be b3 4b 0d 3e a0 c2 e7 3d
       0.21612887 -0.14902675 0.13798408 0.11316419
0000f0 26 62 41 3e cd a0 97 3d ec 8f 3e 3e f2 e5 49 3d
       0.18885097 0.07403717 0.1860959 0.04929156
000100 ad 30 bc 3d d7 23 5a 3c a4 21 39 3e e9 07 8a bb
       0.09188972 0.013314209 0.18079239 -0.0042123687
000110 24 9f 3f bc 40 0e a8 3d ba 3e d2 3d 4f a7 34 3e
       -0.011695657 0.08205843 0.102658704 0.17641948
000120 a9 4f 8d 3d 9f bc 78 bd 55 67 fa 3c 21 76 35 3d
       0.068999596 -0.060726758 0.03056685 0.04430211
000130 cc d5 d1 3d a8 e6 f9 3d 7e 08 4c 3e d0 22 7a 3d
       0.10245857 0.12202197 0.19925115 0.061068356
000140 e7 c1 e3 3d 23 20 bf 3d 65 38 18 3e 08 ad 83 3d
       0.11120968 0.093323015 0.14865263 0.064294875
000150 11 07 1c 3e 8b 91 49 ba 53 ed b6 bb e0 5f e0 3c
       0.1523707 -0.0007689229 -0.0055824905 0.027389467
000160 af 5e 02 3d 32 c8 48 3e 6f ed a2 bc d0 c2 03 3d
       0.03182858 0.19607618 -0.019888608 0.03216821
000170 5a 72 d7 3c 60 61 a0 3b 10 4d 5c bd 0f 2b 18 3e
       0.026299644 0.0048944205 -0.05378443 0.14860176
000180 cd 05 d1 3d e9 13 e3 bd 23 41 87 3d 72 a6 06 be
       0.102061845 -0.11087782 0.06604221 -0.13149431
000190 41 3a 1c 3e 77 49 73 3e 38 ae e5 bd 8f 73 4f 3d
       0.15256597 0.23758493 -0.1121487 0.050647315
0001a0 e9 48 d4 3a a7 0e 47 3e b6 eb 4e 3d 7b 72 9e bd
       0.0016196045 0.19439183 0.05051776 -0.07736679
0001b0 51 03 92 bb d7 7c c9 3d 14 59 1d 3e f3 51 85 bd
       -0.0044559618 0.098382644 0.15366012 -0.06509771
0001c0 9c c9 73 bd df 89 51 3e d2 b0 92 bc 28 8f 74 3d
       -0.05951844 0.2046275 -0.01790658 0.059706837
0001d0 cd 5f 39 bd b7 37 97 bc 51 24 9f 3d 33 09 e3 3d
       -0.04525738 -0.018459184 0.07770599 0.11085739
0001e0 39 f1 40 bc 55 6f 9d 3d a2 25 96 bc 32 95 0b 3e
       -0.011776262 0.076872505 -0.018328492 0.13631132
0001f0 74 fc 0a 3d 3f 82 51 3e ca 17 92 bb 0e 16 da 3d
       0.033932164 0.20459841 -0.0044584023 0.10648738
000200 c3 24 41 bd b0 a9 90 ba 27 c5 a6 3d e6 55 11 3e
       -0.0471542 -0.0011036899 0.081430726 0.14192924
000210 1f 07 40 3c 61 52 91 3d 1b 30 35 bd 23 bc ca bc
       0.011720448 0.07095791 -0.04423533 -0.024747914
000220 a2 db 3b bc d0 9b f0 bd 90 f2 72 3d 3f 89 2b 3d
       -0.011465939 -0.11748469 0.059313357 0.041878935
000230 ba bc ec 3d d5 99 24 3d aa 9f 49 bd 54 26 2f bd
       0.11559434 0.04018577 -0.049224533 -0.042761162
000240 a5 25 ed 3d b3 7d 96 3c 0f 86 77 bd f3 9f 29 3d
       0.11579446 0.018370485 -0.060430583 0.041412305
000250 b6 0d 1b 3d 95 df 7a bd 01 b3 5f 3d 03 99 73 3c
       0.037854873 -0.06124838 0.05461407 0.014868024
000260 64 57 41 3c ee 08 1b 3e d1 ae ec bd 0b f2 1f bb
       0.011800621 0.15140125 -0.11556781 -0.0024405743
000270 d0 cf 61 3d 46 37 9a 3c a4 0f c3 3d 47 3d 62 3d
       0.055129826 0.018825185 0.095244676 0.05523422
000280 37 59 d6 bd b9 1e a3 bc f8 f0 5e 3d 6f 7b 09 bd
       -0.10466235 -0.01991211 0.054429024 -0.03356498
000290 62 b9 03 be c9 80 18 be 74 0e 48 3e 66 68 9a 3d
       -0.12863687 -0.14892878 0.19536763 0.07539444
0002a0 5f b0 86 bd 60 25 2b 3e 10 4f cf 3d 9f 20 33 bc
       -0.06576609 0.16713476 0.10122502 -0.01093307
0002b0 cd ac b8 bd 47 bd 1d bd 92 af 19 3b 47 55 b4 3d
       -0.09017334 -0.038510587 0.0023450595 0.08805328
0002c0 29 ef 53 bb 89 41 3d 3e de 31 13 be 2a 64 07 3e
       -0.0032338595 0.18482031 -0.14374492 0.13221803
0002d0 51 ac cc 3c 05 dd f5 3d e8 81 26 be 00 a7 97 bd
       0.02498451 0.12005047 -0.16260493 -0.074048996
0002e0 20 11 49 3d d2 aa bf 3d 8b 46 3b bd a1 01 f2 bc
       0.049088597 0.09358753 -0.045721572 -0.029541792
0002f0 ac 4b f5 bd 49 63 9b bd 31 6a 0a bd 4c 41 20 be
       -0.11977324 -0.075872965 -0.03379268 -0.15649909
000300 c6 58 02 3e a1 4b eb 3d a8 87 4c 3d 94 a0 aa 3e
       0.12729177 0.114890344 0.04993406 0.33325636
000310 03 28 4b 3d 30 e5 a7 3d f3 9c db 3d 3f 26 53 3e
       0.049598705 0.08198011 0.10723295 0.20620058
000320 eb 77 f3 3d f0 89 2c 3e bf 1b 92 3c 61 ca 60 3e
       0.11888107 0.16849494 0.017835496 0.21952201
000330 cd 51 ec 3d 0b a2 71 3e f9 ec 83 3e da 67 1f 3e
       0.1153904 0.2359697 0.25766733 0.1556696
000340 bb 40 78 3d 47 93 e6 ba bc 9b 88 3e ec 07 96 3d
       0.060608607 -0.00175915 0.26681316 0.0732573
000350 36 3b 0f 3e 76 76 08 3d 27 be de 3d c0 66 8b 3d
       0.13987431 0.0333161 0.108761124 0.068067074
000360 b9 1a 07 3e 71 7d 8e bd 6e 85 8c 3e 17 0a 72 3c
       0.13193788 -0.0695752 0.2744555 0.014772913
000370 40 60 94 3d d0 a2 14 bd 90 af 8e 3b 4b 1d d9 bc
       0.07244921 -0.036288083 0.004354425 -0.026503226
000380 39 62 c7 bc 54 5a 64 3e 4a 69 29 3d 40 e3 62 bd
       -0.024338828 0.22300082 0.041360177 -0.055392504
000390 7c 3e 0e bd ff 30 8b 3e 92 f0 be 3c 35 40 7a 3e
       -0.03472756 0.2718582 0.023308072 0.24438556
0003a0 41 ce 81 3e 16 98 dd 3d 1f 10 4f 3e 97 d7 a3 bc
       0.25352672 0.10820024 0.20220993 -0.020000262
0003b0 55 ac 8c 3c 71 6b 05 3e e0 f5 8e 3e e7 79 78 3d
       0.017172018 0.13029267 0.27921963 0.06066313
0003c0 04 52 8e bc 31 20 53 3c d9 62 58 bb 71 ed 24 bd
       -0.017373092 0.012886093 -0.0033017902 -0.040265504
0003d0 25 d2 cb 3d 5b 1e 60 3e 23 f1 4e 3e fe 68 c4 3d
       0.09952191 0.2188658 0.20209174 0.09590338
0003e0 d7 1b fb 3d b0 ca b9 3d d2 47 ed 3d 54 3c 0f 3e
       0.122611694 0.09071863 0.11585964 0.13987857
0003f0 bb b8 3d 3e e0 ca 8a 3e 05 7c 27 3e 3e 38 61 3e
       0.185275 0.27107906 0.16355903 0.21994111

rits_f.temp_decay_h.W f4 [64, 21]
000000 26 c1 a0 bb 0f 09 e1 bc 4e 60 5f 3d 09 ff c7 3c
       -0.0049058376 -0.02747014 0.054535203 0.024413602
000010 b4 37 70 bd 95 0b b4 3d 6f 37 12 3d 58 f1 f5 bd
       -0.058646873 0.087912716 0.035697397 -0.12008923
000020 29 43 c5 bb 2c fd 98 3d 6d 30 9c 3d ec 68 ec bd
       -0.006019969 0.07470164 0.07626424 -0.1154345
000030 30 e1 09 3c 75 d7 98 3d 91 01 6e 3d 00 28 88 bd
       0.008415505 0.0746297 0.058106963 -0.066482544
000040 50 57 22 3b 57 bb 9b 3d c4 92 ac bc b6 55 42 3d
       0.002477128 0.076040916 -0.021066077 0.04744502
000050 f0 f3 25 3d df ba 0e bc f9 32 f0 bd cc 4c e8 3d
       0.04051584 -0.008711546 -0.11728472 0.11342773
000060 99 cb 54 bb e3 59 a8 bb 5a 86 c2 bd 04 4f a9 3c
       -0.0032469986 -0.0051376685 -0.09498282 0.02066756
000070 dc ae c4 3d 2c 2e 7b bd 0e a8 15 3d 48 6d 94 bd
       0.09603664 -0.06132333 0.036537223 -0.07247406
000080 6d 32 0c 3d f6 7e 74 3d e7 d7 b2 bd c2 5e 52 bd
       0.034227777 0.059691392 -0.08732586 -0.0513599
000090 89 bb ad bd 7d 8d 1d bb 6b 83 05 be 23 61 b5 3d
       -0.08483035 -0.0024040632 -0.13038413 0.08856418
0000a0 a3 67 8a bd fe b6 7e bd 25 b8 8e 3e e2 ba 37 be
       -0.067580484 -0.062186234 0.27874866 -0.17942384
0000b0 95 ce 6a be 5e 27 be bd 05 ab ab 3d 77 ef 96 bc
       -0.22930367 -0.092848524 0.08382229 -0.018424733
0000c0 79 7b 74 be c8 41 a8 bc 3e cb a6 bc f8 0c b6 3d
       -0.23875226 -0.02053918 -0.020360585 0.08889192
0000d0 4f f5 29 be 2c 3b 35 3e 23 d1 a0 bd 44 21 9d bd
       -0.16597484 0.17698354 -0.0785239 -0.076723605
0000e0 b7 24 c5 3c f6 8a 97 3b 7e 01 0d 3c 45 a6 89 bc
       0.024065359 0.0046247197 0.008606313 -0.016802916
0000f0 a3 5f 4f 3e 95 59 48 be 4a dd c3 bd 37 80 b9 be
       0.20251326 -0.19565423 -0.09563692 -0.36230633
000100 f4 e7 99 bd 4e c5 87 be 7d 2c ed bc 50 2c 3c 3e
       -0.07514945 -0.2651772 -0.028951878 0.18376279
000110 7f 65 48 be 17 44 40 3d 88 3b d9 bc 2e 44 06 bd
       -0.19569968 0.046939936 -0.026517645 -0.032779865
000120 a4 22 83 be 3d ed 01 be ff b9 ef 3d d5 37 c7 3c
       -0.25612366 -0.12688155 0.11705398 0.024318615
000130 e1 2f 20 3c 62 9c a0 3e c1 58 af 3d b8 75 08 3d
       0.00977704 0.3136931 0.0856185 0.03331539
000140 66 cd 85 3d fb 3b 70 bc b8 56 ac bd 10 30 b1 3b
       0.06533317 -0.014662738 -0.08414978 0.005407341
000150 e2 23 d3 3d 88 72 a1 be d2 00 ac 3e bc bd ef bd
       0.103095785 -0.31532693 0.33594376 -0.11706111
000160 68 02 3c be 16 33 85 bd 6b d9 a4 bd 78 a3 ad 3e
       -0.18360293 -0.065038845 -0.08049282 0.3391378
000170 db ac 3f 3b 84 ab 0c be be d3 1e 3e 9f 10 5d bc
       0.0029247317 -0.13737303 0.1551046 -0.013492732
000180 2b bd b9 3d 2d 7b 49 bd 16 87 6a 3e e5 cd b8 3b
       0.09069284 -0.049189735 0.22903094 0.005639779
000190 8b cf 29 be 3a 7c 32 be 8e ef d1 bd 36 cb b2 bd
       -0.16583078 -0.17430201 -0.102507696 -0.08730166
0001a0 d8 7e e3 bc 57 e0 3c bd fa 71 87 bc d4 7b c9 bd
       -0.027770445 -0.046112385 -0.01653384 -0.098380715
0001b0 01 f6 2f be c1 11 40 3d 5b 52 b0 bd ab 24 f0 3c
       -0.17183687 0.04689193 -0.08609458 0.02931436
0001c0 6d fb 2b be 33 46 17 be 0e 22 ac 3b e9 a7 a5 3d
       -0.1679513 -0.14772873 0.005253083 0.08088667
0001d0 8a ff 38 be e5 03 b2 bd ed 78 29 be 5e 07 59 ba
       -0.1806623 -0.08692149 -0.16550036 -0.0008278991
0001e0 f7 65 b1 bd db a8 c5 ba 23 7f 29 bd d9 43 2e be
       -0.086620264 -0.001508023 -0.041381013 -0.1701807
0001f0 d5 bb 29 3d fc 68 07 bd 42 1c 31 3c 44 c8 21 3c
       0.041438896 -0.033059105 0.01080996 0.009874407
000200 08 5e b3 3c 88 d5 08 be cf 84 35 be 98 97 b8 bc
       0.021895424 -0.13362706 -0.17726444 -0.022533223
000210 4b e4 f5 bd d5 20 3e be 75 45 da 3a 4c f9 b0 3c
       -0.12006434 -0.18567212 0.001665278 0.021603249
000220 7e 18 f8 bd ab 95 33 be 3e 69 86 bd c2 ce 33 3e
       -0.121140465 -0.17537563 -0.06563042 0.1755934
000230 a5 b8 4e be 82 8d 9a bd 17 69 54 be 29 33 18 be
       -0.20187624 -0.07546522 -0.20743214 -0.14863266
000240 8b 95 2f be 38 4d 07 be 50 c0 16 bd 2e 11 2e 3e
       -0.1714689 -0.1321305 -0.036804497 0.16998741
000250 40 eb be 3d 86 a1 3d 3e 58 75 a6 be b1 d6 d6 3d
       0.09322214 0.18518648 -0.325114 0.10490168
000260 6c e2 5b 3d 34 09 09 bc 87 3a 55 be 11 a8 d7 3b
       0.05368273 -0.008364011 -0.20823108 0.0065813144
000270 44 49 24 3e 63 ad 47 be 49 b2 cc be b0 94 f8 be
       0.16043574 -0.19499736 -0.3997977 -0.4855094
000280 91 31 0f be 51 94 aa be 5d 03 80 be c2 9d e6 bb
       -0.13983752 -0.3331628 -0.25002566 -0.007037849
000290 e4 78 74 be a3 79 87 be 9f c1 6e 3e b0 b4 64 3c
       -0.23874241 -0.2645999 0.23316048 0.013959095
0002a0 e6 32 5b 3e c9 a9 ff bd 58 d0 88 3e c5 a5 8d 3c
       0.21406135 -0.12483556 0.26721454 0.01729096
0002b0 7e a0 cb bd 83 d5 1f 3d 13 75 06 be ec 39 bc 3c
       -0.09942721 0.03902198 -0.13130598 0.022976838
0002c0 5e 93 4f 3d e9 e6 00 be b1 89 9f 3e 3d bd ae bd
       0.05067765 -0.12588085 0.31159738 -0.08532188
0002d0 4c 1d 42 bd 80 b0 89 3e f3 29 34 be 43 d9 2f be
       -0.04739122 0.2689247 -0.17594127 -0.17172723
0002e0 7d 64 43 3d ed 05 90 bd 79 56 a6 bd 08 7d 2d 3e
       0.047703255 -0.0703238 -0.08121962 0.16942227
0002f0 52 86 b3 be 60 71 85 bc e3 23 4e be 35 f9 cf 3d
       -0.35063416 -0.016289413 -0.20130877 0.10154954
000300 22 98 d2 bd d3 15 0a be 04 31 48 3d a4 93 54 be
       -0.10282923 -0.13484888 0.04887487 -0.20759445
000310 f3 18 94 3d 47 48 21 3e 6e e9 06 3e 2a cb 9f 3d
       0.07231321 0.15750228 0.13174984 0.07802422
000320 4a 60 49 bc 87 64 16 3c cc f6 1f be 27 51 31 bd
       -0.0122910235 0.009179241 -0.1562149 -0.043290284
000330 c0 a1 93 3c 73 7c 24 3d 89 69 e8 ba 97 57 1d 3d
       0.018021464 0.040157747 -0.0017731647 0.03841361
000340 9d 81 85 bd ea 93 35 bc 46 ac 1b 3d ea 25 90 bd
       -0.065188624 -0.011082629 0.03800609 -0.070384815
000350 27 c3 4d 3e eb 2d 30 be d3 44 d9 bd 7c 1f f5 bd
       0.20093976 -0.17205016 -0.1060883 -0.11968896
000360 f6 5b df bd 4a db 5a bd 6e 57 53 be 36 1d 4a bd
       -0.10906212 -0.053431787 -0.2063882 -0.049344264
000370 f4 3a 14 bc 33 90 91 3e fb 1c bb 3e 5d a8 70 bd
       -0.009047259 0.28430328 0.36545548 -0.058754314
000380 b1 07 08 be 10 91 d4 3d 1b 1a 9f bd 89 3f a7 bd
       -0.13284184 0.10379231 -0.07768651 -0.08166415
000390 c0 bb a8 3b ed 90 0f bd 8a 27 f6 bb e3 91 66 3d
       0.0051493347 -0.03505032 -0.0075120376 0.056291472
0003a0 36 8b 7a bd b8 e6 e8 3d 62 39 16 3d a3 0e 25 3d
       -0.06116792 0.11372131 0.03667582 0.04029716
0003b0 90 c5 90 bd ce 60 a1 3a b7 94 94 3d 90 bd ff bd
       -0.07068932 0.0012312175 0.072549276 -0.12487328
0003c0 4b e6 99 3d fd 53 01 be ea da fd 3c 77 72 e9 bc
       0.07514628 -0.12629695 0.030988175 -0.028496964
0003d0 70 6f 58 bc 3e b0 96 bd ee 16 f1 bd 2d 6c a3 3d
       -0.0132101625 -0.07357834 -0.117719516 0.07979617
0003e0 cc 18 d8 bd 5b 9a 4b 3c 2e f1 ef bd 3a 16 a0 bd
       -0.10551605 0.012426938 -0.11715923 -0.078167394
0003f0 26 e3 c7 3d 11 86 8c bd b2 a9 16 3d 4b 88 b9 bd
       0.09760122 -0.06861509 0.036782928 -0.09059199

rits_f.temp_decay_h.b f4 [64]
000000 c4 f1 88 be 0b dd c5 3d 2e 2c 4b 3a 72 cb 53 be
       -0.26746953 0.09661301 0.0007750419 -0.20683077
000010 cc 1b 1e 3e ad b9 99 3c 98 fa 1c 3e ca db 3a be
       0.15440291 0.018765295 0.15329969 -0.18247905
000020 a0 fe 17 3e 3e 02 fd 3d 02 1a 84 3d f9 2c 9f 3c
       0.14843225 0.12353943 0.06450273 0.019430624
000030 fc 7a a7 3d b6 50 82 bd 42 fd 12 bd 7b f1 ea bd
       0.08177754 -0.06363051 -0.035886057 -0.1147184
000040 b2 b7 e3 bd 52 de 52 3d 4a f7 d7 3d ae 4d 1a be
       -0.111190215 0.051481552 0.105452135 -0.15068695
000050 45 7b 61 bd a9 f9 7b 3d 22 ae 92 be 4d 69 dd 3c
       -0.0550492 0.06151739 -0.28648478 0.02702775
000060 bc 54 95 bd 96 2f cb 3d 4c 6b be bd 2d 0c 13 3e
       -0.072915524 0.09921186 -0.09297809 0.14360113
000070 cd c4 a4 bd e3 ab 7e 3d 72 17 aa 3c f3 43 9d 3e
       -0.08045349 0.062175643 0.020763133 0.30715904
000080 39 b2 b0 3d 81 e0 34 bd 55 0e 58 bc e2 55 0e be
       0.08627743 -0.044159416 -0.013187011 -0.13899949
000090 37 ca 65 3d 66 70 10 be dc 5b 87 be b0 4f 8f bc
       0.05610105 -0.14105377 -0.2643727 -0.017494053
0000a0 45 94 93 bd 0a 25 2d 3e 1d 91 14 be 6c fd 56 3d
       -0.072060145 0.1690866 -0.14508481 0.052487776
0000b0 4e 5f 2d bd 57 58 f2 3d 49 e5 79 3b a8 1f 63 3c
       -0.042327218 0.11833256 0.003813105 0.013862528
0000c0 8f ab ce bb f7 d0 bc bd 01 ed 92 3d 03 c5 b7 bc
       -0.0063070725 -0.092195444 0.07174111 -0.02243281
0000d0 d8 75 a0 bd 91 e0 39 bd 78 0f a1 3c 89 cd 3b 3d
       -0.07834977 -0.04538018 0.019660696 0.04585031
0000e0 28 fa 9d 3d 9e 27 f9 3d ad 7a 7c 3b 76 e1 e5 bd
       0.07713729 0.121657595 0.003852527 -0.11224644
0000f0 40 c4 8a be b5 6f 41 bd fb 9d 69 be b3 c8 80 be
       -0.27102852 -0.047225673 -0.22814171 -0.2515312

rits_f.temp_decay_x.W f4 [21, 21]
000000 c6 49 e6 bb 7c b9 76 bd 3c a0 71 bd fe cb b9 3d
       -0.0070278374 -0.060235485 -0.058990702 0.090721115
000010 7f d5 db bd f8 25 aa 3c 62 b1 bc 3d 60 86 2b bd
       -0.107340805 0.020770058 0.092135206 -0.041876197
000020 29 ae 4a be 53 e8 4b 3e de d6 2d be f3 e8 0c 3e
       -0.19793 0.19912843 -0.16976497 0.13760738
000030 a0 da 58 bd e8 eb 1b bd 1a c5 f5 3d fc 56 40 bd
       -0.052942872 -0.038066775 0.12000485 -0.046957955
000040 44 c4 00 be 73 23 f8 bd 13 de c1 bd b6 e8 a1 3d
       -0.1257487 -0.121161364 -0.094661854 0.07905714
000050 9f 01 17 be 43 36 43 3e a8 b0 5a 3e 94 de 35 3d
       -0.14746712 0.19063668 0.21356452 0.04440172
000060 e8 ad 32 be 6a 5e ef 3d 4a d1 f4 3d 8b 5d 06 be
       -0.17449152 0.1168793 0.11953981 -0.13121621
000070 3d 6c 4e be 5c ec 19 be de d5 f0 bd 3e b3 1b be
       -0.20158477 -0.1503157 -0.11759542 -0.15205094
000080 80 37 84 3c d6 b1 5d be 70 a6 3a bd 2c 99 08 3d
       0.016139746 -0.2164987 -0.045568883 0.0333492
000090 f2 4c 9a 3d 3b b0 12 3e 35 e9 51 be b4 a0 10 bd
       0.075342074 0.14325039 -0.20499118 -0.03530951
0000a0 3c f6 0e 3d 61 2d 37 3e 7a fe 9a bd 8c b3 27 3d
       0.034902796 0.17888404 -0.07568069 0.040942714
0000b0 d8 9e a6 bc 80 0b 15 be 7a ad 91 3d 3f 6e 50 3e
       -0.020339414 -0.14555168 0.07113166 0.20354556
0000c0 fe cb c0 3d bf 40 25 3e 24 b5 2c be 14 e3 2f 3d
       0.094139084 0.1613798 -0.16865975 0.042941168
0000d0 00 25 8d bb 24 88 a6 bd 36 c3 a4 bd 9c d2 71 bd
       -0.0043073893 -0.081314355 -0.08045046 -0.059038743
0000e0 f6 62 f1 3d 0b d7 23 3e 37 a8 53 3e 61 44 13 3e
       0.117864534 0.16000001 0.20669638 0.14381553
0000f0 fb 29 1a 3e fd b7 02 3e 18 7e bc bc c0 aa 92 bb
       0.15055077 0.12765498 -0.023009345 -0.0044759214
000100 a1 76 20 3e 8c c9 3a bd ec cc c4 bb 60 62 10 3c
       0.15670253 -0.045602366 -0.006005874 0.008812517
000110 2c 5f 07 be 90 06 d1 3c 12 6f bf 3d be 78 17 be
       -0.13219899 0.025515825 0.09347357 -0.14792153
000120 84 69 3a 3d c0 bf 7e bc aa ca e4 bd ab b2 de bd
       0.045510784 -0.015548646 -0.111714676 -0.10873922
000130 80 ef 40 3b b2 8a d0 3d 50 9b 64 bc 80 6f 1e bc
       0.0029439628 0.10182704 -0.013953045 -0.009670138
000140 c4 83 06 bd b4 ce 1c be be 24 90 3d 7a 90 e7 3d
       -0.032840505 -0.15313226 0.07038258 0.113068536
000150 00 ba 4d 3a 66 d9 d0 3d 39 b1 36 be bd 2c 3f 3e
       0.00078478456 0.101977155 -0.17841043 0.1866941
000160 c4 cd 5c be 15 94 0a 3e a4 be 0f be 90 44 11 be
       -0.21562868 0.13533051 -0.14037567 -0.14186311
000170 52 de f7 3d 1a 6d a8 3d bf c5 5e 3e d3 d8 3b 3e
       0.12102951 0.082239345 0.21755122 0.1834443
000180 3c d7 43 be ba 20 40 be 28 25 fb 3c 42 15 82 3d
       -0.19125074 -0.18762484 0.030657366 0.06351711
000190 fa c6 85 3d 96 d3 96 3d 1f 9c e3 bd 7a 4f df 3d
       0.065320924 0.073645756 -0.11113762 0.10903831
0001a0 ec 47 67 3d 40 df 25 bc d1 b0 34 3e 7c 92 6a 3d
       0.056465074 -0.010124028 0.17645575 0.057268605
0001b0 a2 b9 bc bd 6d 54 5f be 46 ee 4c be 2e b6 08 be
       -0.09215094 -0.2180955 -0.20012769 -0.13350746
0001c0 1f e1 48 3e 9c b3 6e bd 95 ff 05 3e 2d 8c 0e 3e
       0.19617127 -0.058276758 0.13085778 0.1392066
0001d0 d9 fa 57 3e 62 32 59 be 42 bb b2 bd c0 c8 c3 bb
       0.21091785 -0.21210626 -0.08727123 -0.005974859
0001e0 e8 69 3c bd 94 fd 50 bd fc f2 0c be 02 f3 8e 3d
       -0.045999438 -0.05102308 -0.13764566 0.06979944
0001f0 67 bc 35 be 6b 5f 0d 3e 11 83 cd bd 73 c7 43 3e
       -0.17747651 0.1380593 -0.100347646 0.19119053
000200 a0 62 7e bd 73 8f 12 3e 8e ca a2 3d 49 bb 1f 3e
       -0.062105775 0.14312534 0.079487905 0.15598787
000210 2d ec 23 3c fc f6 16 bd 70 c3 00 bc cd b8 f9 bd
       0.010005039 -0.036856636 -0.007859096 -0.12193451
000220 4b da 51 3e 86 2a 9f 3d 2a 33 d6 3d a5 a3 38 3e
       0.20493428 0.077717826 0.104589775 0.18031175
000230 03 00 34 3e fa b8 a9 3d 3c 9a 5a 3d 0b 41 1b 3e
       0.1757813 0.082872346 0.053369746 0.1516153
000240 70 4e 57 be 6c 63 63 3d f2 8e 21 be e0 51 b2 bb
       -0.21026015 0.055514738 -0.15777186 -0.005441889
000250 82 7f 27 be dc f4 12 3d d6 d8 9a 3d e3 f3 57 be
       -0.16357234 0.035878047 0.075608894 -0.21089129
000260 84 48 1d be 7f ce 03 3e 6e 26 c5 bc 42 3e 93 3d
       -0.15359694 0.12871741 -0.024066176 0.07189609
000270 b5 ed 59 3e a0 54 98 bc a0 f5 27 be 56 03 d1 3d
       0.21282084 -0.01859504 -0.16402292 0.102057144
000280 50 3a 9f bd 1c da 58 bd fc 07 63 bd 70 c2 4c 3c
       -0.07774794 -0.05294238 -0.055427536 0.012497529
000290 ba 93 39 be 22 ea 56 be a6 69 b4 3d 48 9d 27 bd
       -0.1812276 -0.20987752 0.08809213 -0.04092148
0002a0 3a 01 82 3d f7 60 28 3e 9c e8 25 be 34 90 63 3d
       0.0634789 0.16443239 -0.16202015 0.055557445
0002b0 fb 87 0d 3e 28 07 95 bd 60 6e af 3b ae b6 8a bd
       0.13821404 -0.072767556 0.005353734 -0.06773125
0002c0 f4 3a 3f be 81 34 4e 3e f9 bf 20 be 98 e1 ce bc
       -0.18674833 0.20137216 -0.15698232 -0.025254056
0002d0 20 94 ba 3b 4a 4a a9 bd 60 a6 69 3c d2 7f a5 3d
       0.0056939274 -0.08266123 0.014260858 0.080810204
0002e0 75 38 17 3e aa cd 2a be 5c c3 07 3d 5e 47 0a be
       0.1476763 -0.16680017 0.033145294 -0.13503787
0002f0 01 f0 59 3e 10 f7 08 3c 0e cf 92 bd c8 a3 36 be
       0.2128296 0.008359686 -0.07168399 -0.17835915
000300 b3 92 43 3e 7b 7a 49 3e e6 7e e3 3d 75 a7 22 3e
       0.1909893 0.19675629 0.11108188 0.15884192
000310 77 48 37 3e 34 4f 58 be e5 2e 26 be 53 7e 1e 3e
       0.17898737 -0.21123964 -0.16228826 0.15477876
000320 c5 7e 20 3e 0b 10 58 3e 36 d2 8b bd a5 b1 1a 3e
       0.15673359 0.2109987 -0.06827204 0.15106829
000330 c6 24 d1 3d bf 2d eb bd 80 f8 b7 3c 09 da 40 3e
       0.10212092 -0.11483335 0.022457361 0.18833174
000340 46 d7 85 3d f0 6f b5 bd 06 f1 b8 3d 04 0d 39 3d
       0.06535201 -0.08859241 0.090303466 0.04517843
000350 62 c3 8d 3d 5b 69 3e be dc d8 33 bd 0e a2 c3 3d
       0.06922032 -0.18594877 -0.043907985 0.09552394
000360 08 f8 33 be 6b 5a 24 3e 01 e9 45 3e 54 ec 1e 3d
       -0.17575085 0.16050117 0.19327165 0.0387996
000370 5d cd 01 3f 11 1f 40 3e 5f 01 2a be 24 00 29 be
       0.50703984 0.18761851 -0.16602086 -0.1650396
000380 1b c6 32 3e 20 fa d8 bd cc e1 0d be 80 27 65 3b
       0.17458384 -0.105945826 -0.13855666 0.003496617
000390 8c 97 77 3d 57 8d 36 3e c0 ae ad 3b f4 cc 5e 3d
       0.06044726 0.17827354 0.005300373 0.054394677
0003a0 e0 ee 68 3c 77 6e cf bd 56 bc 28 be 3b 57 56 3e
       0.0142171085 -0.10128491 -0.16478094 0.20931713
0003b0 db 4e 5f 3e 90 6c de bc 24 5b 73 bd 13 6b 31 be
       0.21807425 -0.027151376 -0.05941309 -0.17326002
0003c0 c1 7e 2b be bc 68 28 bd f8 2a b7 3d 7f 4c 2f 3e
       -0.16747572 -0.041115507 0.089437425 0.17119025
0003d0 68 b2 0b be 60 94 25 be 58 cc c1 bc 1c d5 1d be
       -0.13642275 -0.16169882 -0.023657009 -0.15413326
0003e0 40 43 de bb 75 1f 38 3e 9f 48 25 3e 28 d7 c9 bc
       -0.006782919 0.1798075 0.16140984 -0.024638727
0003f0 da a4 a9 bd ec 5e 22 3d de eb eb bd d0 ae 49 bd
       -0.08283396 0.039641306 -0.115195975 -0.04923898

rits_f.temp_decay_x.b f4 [21]
000000 40 1e 46 be f8 61 75 3e b0 cb 10 3c ac 23 16 be
       -0.19347477 0.23963153 0.008837625 -0.14662045
000010 18 fb 59 bd a3 42 29 3e 99 c6 25 3e fd 43 43 3e
       -0.053217977 0.16529326 0.1618904 0.19068904
000020 48 c4 5c bd d2 2e ae 3d 30 56 cb bc 68 d8 e7 bd
       -0.053898126 0.08505024 -0.02482137 -0.11320573
000030 c3 74 be 3d fd 61 bc bc 94 8e 22 3d fb 85 53 be
       0.09299614 -0.022995943 0.039686754 -0.20656578
000040 65 89 28 bf 53 0f 80 bf 10 5a ad bd 31 47 13 3e
       -0.6583465 -1.0004677 -0.08464444 0.14382626
000050 68 33 be bc
       -0.023217872

rits_f.temp_decay_x.m f4 [21, 21]
000000 00 00 80 3f 00 00 00 00 00 00 00 00 00 00 00 00
       1.0 0.0 0.0 0.0
000010 00 00 00 00 00 00 00 00 00 00 00 00 00 00 00 00
       0.0 0.0 0.0 0.0
000020 00 00 00 00 00 00 00 00 00 00 00 00 00 00 00 00
       0.0 0.0 0.0 0.0
000030 00 00 00 00 00 00 00 00 00 00 00 00 00 00 00 00
       0.0 0.0 0.0 0.0
000040 00 00 00 00 00 00 00 00 00 00 00 00 00 00 00 00
       0.0 0.0 0.0 0.0
000050 00 00 00 00 00 00 00 00 00 00 80 3f 00 00 00 00
       0.0 0.0 1.0 0.0
000060 00 00 00 00 00 00 00 00 00 00 00 00 00 00 00 00
       0.0 0.0 0.0 0.0
000070 00 00 00 00 00 00 00 00 00 00 00 00 00 00 00 00
       0.0 0.0 0.0 0.0
000080 00 00 00 00 00 00 00 00 00 00 00 00 00 00 00 00
       0.0 0.0 0.0 0.0
000090 00 00 00 00 00 00 00 00 00 00 00 00 00 00 00 00
       0.0 0.0 0.0 0.0
0000a0 00 00 00 00 00 00 00 00 00 00 00 00 00 00 00 00
       0.0 0.0 0.0 0.0
0000b0 00 00 80 3f 00 00 00 00 00 00 00 00 00 00 00 00
       1.0 0.0 0.0 0.0
0000c0 00 00 00 00 00 00 00 00 00 00 00 00 00 00 00 00
       0.0 0.0 0.0 0.0
0000d0 00 00 00 00 00 00 00 00 00 00 00 00 00 00 00 00
       0.0 0.0 0.0 0.0
0000e0 00 00 00 00 00 00 00 00 00 00 00 00 00 00 00 00
       0.0 0.0 0.0 0.0
0000f0 00 00 00 00 00 00 00 00 00 00 00 00 00 00 00 00
       0.0 0.0 0.0 0.0
000100 00 00 00 00 00 00 00 00 00 00 80 3f 00 00 00 00
       0.0 0.0 1.0 0.0
000110 00 00 00 00 00 00 00 00 00 00 00 00 00 00 00 00
       0.0 0.0 0.0 0.0
000120 00 00 00 00 00 00 00 00 00 00 00 00 00 00 00 00
       0.0 0.0 0.0 0.0
000130 00 00 00 00 00 00 00 00 00 00 00 00 00 00 00 00
       0.0 0.0 0.0 0.0
000140 00 00 00 00 00 00 00 00 00 00 00 00 00 00 00 00
       0.0 0.0 0.0 0.0
000150 00 00 00 00 00 00 00 00 00 00 00 00 00 00 00 00
       0.0 0.0 0.0 0.0
000160 00 00 80 3f 00 00 00 00 00 00 00 00 00 00 00 00
       1.0 0.0 0.0 0.0
000170 00 00 00 00 00 00 00 00 00 00 00 00 00 00 00 00
       0.0 0.0 0.0 0.0
000180 00 00 00 00 00 00 00 00 00 00 00 00 00 00 00 00
       0.0 0.0 0.0 0.0
000190 00 00 00 00 00 00 00 00 00 00 00 00 00 00 00 00
       0.0 0.0 0.0 0.0
0001a0 00 00 00 00 00 00 00 00 00 00 00 00 00 00 00 00
       0.0 0.0 0.0 0.0
0001b0 00 00 00 00 00 00 00 00 00 00 80 3f 00 00 00 00
       0.0 0.0 1.0 0.0
0001c0 00 00 00 00 00 00 00 00 00 00 00 00 00 00 00 00
       0.0 0.0 0.0 0.0
0001d0 00 00 00 00 00 00 00 00 00 00 00 00 00 00 00 00
       0.0 0.0 0.0 0.0
0001e0 00 00 00 00 00 00 00 00 00 00 00 00 00 00 00 00
       0.0 0.0 0.0 0.0
0001f0 00 00 00 00 00 00 00 00 00 00 00 00 00 00 00 00
       0.0 0.0 0.0 0.0
000200 00 00 00 00 00 00 00 00 00 00 00 00 00 00 00 00
       0.0 0.0 0.0 0.0
000210 00 00 80 3f 00 00 00 00 00 00 00 00 00 00 00 00
       1.0 0.0 0.0 0.0
000220 00 00 00 00 00 00 00 00 00 00 00 00 00 00 00 00
       0.0 0.0 0.0 0.0
000230 00 00 00 00 00 00 00 00 00 00 00 00 00 00 00 00
       0.0 0.0 0.0 0.0
000240 00 00 00 00 00 00 00 00 00 00 00 00 00 00 00 00
       0.0 0.0 0.0 0.0
000250 00 00 00 00 00 00 00 00 00 00 00 00 00 00 00 00
       0.0 0.0 0.0 0.0
000260 00 00 00 00 00 00 00 00 00 00 80 3f 00 00 00 00
       0.0 0.0 1.0 0.0
000270 00 00 00 00 00 00 00 00 00 00 00 00 00 00 00 00
       0.0 0.0 0.0 0.0
000280 00 00 00 00 00 00 00 00 00 00 00 00 00 00 00 00
       0.0 0.0 0.0 0.0
000290 00 00 00 00 00 00 00 00 00 00 00 00 00 00 00 00
       0.0 0.0 0.0 0.0
0002a0 00 00 00 00 00 00 00 00 00 00 00 00 00 00 00 00
       0.0 0.0 0.0 0.0
0002b0 00 00 00 00 00 00 00 00 00 00 00 00 00 00 00 00
       0.0 0.0 0.0 0.0
0002c0 00 00 80 3f 00 00 00 00 00 00 00 00 00 00 00 00
       1.0 0.0 0.0 0.0
0002d0 00 00 00 00 00 00 00 00 00 00 00 00 00 00 00 00
       0.0 0.0 0.0 0.0
0002e0 00 00 00 00 00 00 00 00 00 00 00 00 00 00 00 00
       0.0 0.0 0.0 0.0
0002f0 00 00 00 00 00 00 00 00 00 00 00 00 00 00 00 00
       0.0 0.0 0.0 0.0
000300 00 00 00 00 00 00 00 00 00 00 00 00 00 00 00 00
       0.0 0.0 0.0 0.0
000310 00 00 00 00 00 00 00 00 00 00 80 3f 00 00 00 00
       0.0 0.0 1.0 0.0
000320 00 00 00 00 00 00 00 00 00 00 00 00 00 00 00 00
       0.0 0.0 0.0 0.0
000330 00 00 00 00 00 00 00 00 00 00 00 00 00 00 00 00
       0.0 0.0 0.0 0.0
000340 00 00 00 00 00 00 00 00 00 00 00 00 00 00 00 00
       0.0 0.0 0.0 0.0
000350 00 00 00 00 00 00 00 00 00 00 00 00 00 00 00 00
       0.0 0.0 0.0 0.0
000360 00 00 00 00 00 00 00 00 00 00 00 00 00 00 00 00
       0.0 0.0 0.0 0.0
000370 00 00 80 3f 00 00 00 00 00 00 00 00 00 00 00 00
       1.0 0.0 0.0 0.0
000380 00 00 00 00 00 00 00 00 00 00 00 00 00 00 00 00
       0.0 0.0 0.0 0.0
000390 00 00 00 00 00 00 00 00 00 00 00 00 00 00 00 00
       0.0 0.0 0.0 0.0
0003a0 00 00 00 00 00 00 00 00 00 00 00 00 00 00 00 00
       0.0 0.0 0.0 0.0
0003b0 00 00 00 00 00 00 00 00 00 00 00 00 00 00 00 00
       0.0 0.0 0.0 0.0
0003c0 00 00 00 00 00 00 00 00 00 00 80 3f 00 00 00 00
       0.0 0.0 1.0 0.0
0003d0 00 00 00 00 00 00 00 00 00 00 00 00 00 00 00 00
       0.0 0.0 0.0 0.0
0003e0 00 00 00 00 00 00 00 00 00 00 00 00 00 00 00 00
       0.0 0.0 0.0 0.0
0003f0 00 00 00 00 00 00 00 00 00 00 00 00 00 00 00 00
       0.0 0.0 0.0 0.0
