model_BRITS.model (torch, 458681 bytes, 36 tensors)

rits_f.rnn_cell.weight_ih f4 [256, 40]
00000000: 34d6 3b3e 8159 9c3d 9b66 103e e16e 893e
00000010: ab76 0ebd adef c33d c998 83be bce6 803d
00000020: 6aa3 31bd 1af9 a4be 8b0a dcbd ebfc 873f
00000030: 90fc a03e ac30 a2be 6751 30bd 60c3 0abe
00000040: 7404 c6bd 34cf 99be 3291 99bc 36e6 24be
00000050: 11f3 02be 528d 1abf fece 503e 5183 753e
00000060: ab35 cc3e b752 96be b906 d2bd fdad 23be
00000070: 5f0c ae3e 0467 f53b 5325 493d e884 223e
00000080: ca91 a63d 01b9 3b3e 28ff 2fbe 0b78 d73d
00000090: 5454 9c3e f4cb d23e ecbc dc3e 54ea 6ebe
000000a0: 4a3d f73d 9ccf 0b3e ccc5 7b3e 77fa 5e3d
000000b0: 4d2a 00be a27c 76be ab55 b23e d787 4d3e
000000c0: 0ecf 07bf 3240 05bf e62d 80bd b8e0 403e
000000d0: bd71 1abe 2ae6 e13e bc5e 963d aab6 91bd
000000e0: c85f 5dbe cdb6 96bd 7a0c 853d b01d 5b3d
000000f0: 385b 8abd 7f0b 16be 176f 2a3d 050b 803e
00000100: 36cc 8b3d 01b5 473e e7df d13e c2cb 98bb
00000110: cf19 b93e d4a9 cabd 104f f93d d1ba 453e
00000120: 0f36 8bbe ab72 cabd 5202 983e 3298 14bd
00000130: 41df 773c 8ca1 083e 8d2d 873b 4704 eabc
00000140: 372c 1dbe fa64 883d ad40 90bd 3fa0 57be
00000150: 4601 bc3e 4659 adbe 0bf3 54be 2717 94be
00000160: 72a8 96bc ebd2 1e3f 3e1c b53d c951 223d
00000170: 78dd 01bf a2d4 9d3d 71aa 06be 041f f6bd
00000180: b783 333e 0a00 05be e439 babd 8317 9bbe
00000190: 7ce9 9e3e 3f3a 18bd 65e9 9e3c e745 2a3e
000001a0: bcd7 00be 7a60 e93e a35f db3e 393f 6fbc
000001b0: 2fe9 57be 3a43 ee3c 4994 e83d 007c c7bc
000001c0: 4132 33be afb7 87bb f8f9 44be e64d 913e
000001d0: 49ad 5abe f59a dd3d ba9a 133d d76a 7bbd
000001e0: ccdb 4fbd 4163 073d 5e75 01bd 94a3 67be
000001f0: 9aa3 cebc 42ea 63be c9ed fd3e ede3 a83e
00000200: e59c f1bd eed0 61be 3890 533e e416 c53c
00000210: b3b2 373e 083f 09bd 3a7e 06bc 40b8 57bd
00000220: 3d0b 68be 0aba 16be 9c82 dabd 6af6 76bd
00000230: 2bb8 8f3d 45b8 39be bdc8 163e 8b2e ce3c
00000240: d4d2 2e3b 3671 37be 4b63 c7bd 5d9c c2bd
00000250: 0816 87bc 03fb 863c 3dc3 2e3d e9b7 ed3d
00000260: 6a56 863d c85a 39bd c2e6 dbbd ad6e ce3d
00000270: 27f2 043e f4b2 423e c2ed 29bd 332b 18bd
00000280: 0bd0 96bd da30 0bbf 9f6b 2fbc e213 623e
00000290: 8794 4c3e eefb 923e 677c 203f 0ea2 793e
000002a0: 5a6a 3ebd 0a7b 1ebd 1b24 62be 79b3 ae3e
000002b0: 2e2b a4bd 374f 3bbd 20b0 203e 4c6b eb3c
000002c0: 9cd0 893e 6f0b 253f 7167 33be 28fe 3f3d
000002d0: 5677 193e c220 e13d 70c5 ab3d 2f91 3dbe
000002e0: cb70 f2bc 2de5 613d 9a1c 3a3d b95c d53d
000002f0: 8784 123e 5f45 303e 16da 12bd 9713 ba3d
00000300: 32a2 c6bd f3e2 a339 b3b0 b83d 8919 bb3c
00000310: ed1a 913b 9c23 00be f89f 863d c650 173e
00000320: 7cc4 303d 2c79 433c 834e 0f3d ae63 46bd
00000330: 8579 8a3e 6963 353e c83d ac3e e73d 0b3e
00000340: 8fe8 953a af0a b4bd 6f2d 283f 96d6 8fbe
00000350: b6b3 cdbd f5fe 4b3e d5e8 d5bb f628 333d
00000360: fc84 6fbc 1ea2 58bd f7f9 67bd 4eb1 31be
00000370: e719 e43d f56e 89bd a97a 113e ebfb 693e
00000380: bebe eabd f3bc 9bbd fdc9 f3bc b91f 8c3e
00000390: 65e3 793c d657 8fbd 724a 48be e3cf 13ba
000003a0: f2ba 0fbb 5670 443e f35f 12be f40d 813d
000003b0: c12a 633e 5b14 cd3d 95cb e53c dab0 edbd
000003c0: 2f9e 01bd 809a 8dbe efc8 b23d f1f0 cbbd
000003d0: 0775 113f 8656 f43e 5ca1 67be 2d28 ce3d
000003e0: d483 603c 9f55 2cbf 0b3a 953d 0ddd e73d
000003f0: b802 3d3d e80d f83e 62a2 a5bd 95fc cb3c
0.18343431 0.07634259 0.14101641 0.26842406 -0.03478114 0.09567199 -0.25702503 0.06294009
-0.043368734 -0.322213 -0.107441984 1.062406 0.3144269 -0.3167776 -0.04304638 -0.13551092
-0.09668818 -0.30040896 -0.018745992 -0.16103444 -0.12788035 -0.6037189 0.20391461 0.23975874
0.39884695 -0.2935998 -0.102551885 -0.1598434 0.33993813 0.007489087 0.04910786 0.15871012
0.08133276 0.18332292 -0.17187178 0.10520943 0.30533087 0.4117123 0.43112886 -0.23331577
0.12072237 0.13653415 0.24587172 0.05443808 -0.12516136 -0.24070981 0.34830984 0.2007135
-0.53050315 -0.5205108 -0.062587544 0.18835723 -0.1508245 0.44120914 0.07342288 -0.071149185
-0.21618569 -0.07359085 0.0649652 0.05349511 -0.0675568 -0.14652823 0.04160985 0.25008407
0.068260595 0.19502641 0.40991136 -0.0046629617 0.36152503 -0.098956734 0.12173283 0.19309546
-0.2718968 -0.098851524 0.2968927 -0.036277957 0.0151289115 0.13342875 0.004125303 -0.028566493
-0.15348898 0.06659885 -0.07043586 -0.21057223 0.36719722 -0.33857173 -0.20795839 -0.28923914
-0.018390868 0.62040585 0.088432774 0.039628778 -0.5072856 0.07706572 -0.13150956 -0.120176345
0.17530714 -0.12988296 -0.09093073 -0.30291376 0.3103751 -0.037164923 0.0193984 0.16628228
-0.12582296 0.45581418 0.42846403 -0.014602476 -0.21085046 0.02908479 0.11356408 -0.02435112
-0.17499639 -0.00414177 -0.1923598 0.28379744 -0.21355166 0.10820571 0.03603623 -0.061381187
-0.050746724 0.03305364 -0.03160607 -0.22620994 -0.025224496 -0.22257331 0.49595478 0.32986394
-0.117975034 -0.22052357 0.20660484 0.024058767 0.17939262 -0.033507377 -0.008208806 -0.05266595
-0.22660537 -0.14719406 -0.10669443 -0.060293593 0.07017549 -0.181367 0.14725013 0.025168678
0.0026675956 -0.1791428 -0.097357355 -0.0950248 -0.016489998 0.016477114 0.042666662 0.11607344
0.06559451 -0.04525259 -0.10737373 0.100797035 0.12982999 0.19013578 -0.04148651 -0.037150573
-0.073639 -0.54371417 -0.010706811 0.22077897 0.19978534 0.28707832 0.6268982 0.24378225
-0.046488144 -0.038691558 -0.22084086 0.34121302 -0.08016048 -0.045729842 0.15692186 0.028737687
0.2691697 0.6447057 -0.17519929 0.04687324 0.1498693 0.10992576 0.083872676 -0.18512414
-0.0295948 0.0551502 0.045437433 0.10418076 0.14308368 0.17213963 -0.035852514 0.09085768
-0.09698905 0.00031258873 0.09018078 0.022839325 0.0044282586 -0.12513584 0.0657348 0.14776906
0.043156132 0.011930745 0.034986984 -0.048434906 0.27045837 0.17713703 0.33640885 0.13597833
0.0011437106 -0.087911 0.65694326 -0.28093404 -0.10044043 0.19921477 -0.006528 0.043740235
-0.014619108 -0.052888982 -0.05663487 -0.17352793 0.11137753 -0.067106165 0.14206947 0.22850005
-0.114621624 -0.076043986 -0.029759401 0.27367952 0.015251969 -0.06999175 -0.19559649 -0.00056385825
-0.0021931496 0.19183478 -0.14294414 0.063014895 0.22184278 0.10013648 0.028051177 -0.116059974
-0.031644996 -0.27656937 0.08729731 -0.09958065 0.56819195 0.47722262 -0.22620147 0.10066257
0.013703305 -0.6731815 0.072864614 0.11321459 0.04614517 0.4844811 -0.08087613 0.024900714

rits_f.rnn_cell.weight_hh f4 [256, 64]
00000000: 900e d7be d650 31bd ddb0 873e 0cce 2e3d
00000010: 3b30 e6be 511d 03bf 234c 9f3e 764b f03d
00000020: 0b0a d93e dc96 2a3f 439a 0a3e f440 8cbd
00000030: 42f0 f4be 500d eb3e cc87 263e dd9f 373f
00000040: 0dd7 493f d96a dcbd 510a d23e 1715 d23d
00000050: 3122 a7be 280f 43be 32a3 00bf cd56 33be
00000060: 5b59 0b3f e8ee 2b3d 860a 17be d6cc a9be
00000070: 416d 58bd e83c b83e e85c 7f3d 3ac2 5a3e
00000080: daa1 5ebe 1e97 50be d166 babe 084a 04bf
00000090: c34b d03d b3fc 833e cd2f 603d fb35 423f
000000a0: 11a4 eebd 7138 4fbf 2328 4cbe a784 a63e
000000b0: ac9b 28bf 6414 59be 21a9 17be fa81 e8bc
000000c0: c11b 8d3e dfab 70be 65d6 5bbd 5821 c93d
000000d0: 73b3 17bd 9c0b 3bbe 4eb8 303e a0b9 c93c
000000e0: 6320 783e e396 5ebe 6409 033e 9968 92be
000000f0: 6262 72be 5f31 99be 6a13 083e 5dde cf3e
00000100: c9da bfbe 5727 253e 4bef 9e3e ce05 323f
00000110: 5564 bdbe 1f78 cabe f5d4 fb3e 7f27 783e
00000120: 00f5 a3bb c608 7dbe 3caa 51be 71b3 1abe
00000130: 4559 8c3d 8334 ad3e 6ab7 74be aea4 12bf
00000140: 1b62 783d fc7f 8c3d 23c1 edbd c973 fd3d
00000150: d8ea 3ebf 4a9f 6abe 2bf8 123e d4fc 62bf
00000160: f860 6a3e 6506 383e 4855 343d 9652 8ebe
00000170: b737 ef3d 06ec 09bd 6a0b fe3d 83e7 fcbd
00000180: f9f5 c4be 6aa7 6a3e 5708 b8be b0a5 023e
00000190: 70fa 1cbe 4f53 9d3e 1d1a 573e ba83 af3e
000001a0: ae24 d73d ff13 0cbd a034 e63c a182 4abe
000001b0: 3f07 7c3f 678c a2bc 4887 fcbe 8718 b53e
000001c0: de88 1a3e 2128 8c3d decd 7cbe 2c80 99be
000001d0: 3ce5 3b3e 9c4f 41bd 79d9 823e 814a 493e
000001e0: 4645 27bd fbaf 23be 5ab3 b33e 9d74 873e
000001f0: 25c3 753e ba56 0abe 1b91 773f 74f3 dcbd
00000200: 91ab 8dbe 1460 7bbe 6fbe 35bd c785 87bf
00000210: 4ef0 c7bd 5ab3 153f 6ca2 803e ab91 5e3d
00000220: b7dd 69be ad71 c53c 7a3a 02be d12d 2c3e
00000230: 7692 27be d333 f53d bbed c3be d167 8d3f
00000240: 59bc f03d 0071 67be 617e abbe 1ebf 9f3e
00000250: 2eaf 343e f7e9 e8bd 1ee0 ce3e 6256 6a3e
00000260: d859 1b3e 44ac b2be 21d9 733e 7c27 d43e
00000270: 2218 e13d 8244 993e 7db4 9cbc 4f0b 5cbf
00000280: c5e9 863e 7bf7 0e3e 7293 253f 7260 1cbf
00000290: 8cdf a7be 6b71 603f f78f e9be f7c6 82bd
000002a0: eee6 5b3e 6e3d b2bf d7dd 9b39 9bb4 0d3e
000002b0: 2925 983e 7a2e 1e3f 8f08 c63e 69b4 3e3f
000002c0: 8458 96bd a49d a23e 3e3d 86be e18a 01be
000002d0: 1bc2 8fbd 06c7 86bd ae3a ed3d 58d3 81be
000002e0: 0f87 afbd dd0f 69be c637 79be c70c 8b3e
000002f0: 8f99 d13e 5917 d9be 1310 1f3f 81a9 dd3e
00000300: 00f2 9ebd af73 363e 96ba 60bd 8dec 1abd
00000310: 4cfc 84bd e6f0 09be 425f 893d c7b8 823c
00000320: bc33 20be 4ab7 09bd aaeb 913b fd49 68be
00000330: f693 03bf 713f 1e3e f97f 06be 1479 913d
00000340: 27a6 853d b439 a73e 7bfe e2be bb4c 8d3d
00000350: b645 1abe acc0 f73d 1675 873d c394 9cbd
00000360: 20e9 ce3d 9f8a bb3d 158d a33d 3414 0a3e
00000370: a93a 9bbd 411f 45be cbd4 403e 169e 05bd
00000380: 1643 e33d 814b 61bd 8267 b33d 0594 3a3d
00000390: 00e1 a03e 1655 78bd 7a9d 59be f586 48be
000003a0: 84d9 a9bd cc9b 1cbe e86c f7bd 5383 4c3e
000003b0: bfa5 8bbd 42aa ea3d 1bd7 ce3c 1dfc f23d
000003c0: a5f6 933c d870 2ebe 5d83 59bd e250 2abf
000003d0: 2b44 e7bd 5bd1 653e 394c 62bd 408e c23d
000003e0: d969 51bd abf7 e8bd 79f9 84bc 3c44 3f3e
000003f0: 311f 91bd 8587 493e 1329 da3d 2794 afbd
-0.42003298 -0.04328998 0.26502123 0.04267697 -0.44958672 -0.5121661 0.31112775 0.11733143
0.42390475 0.66636443 0.13535409 -0.06848326 -0.47839552 0.45908594 0.1626274 0.71728307
0.78843766 -0.10762567 0.41023496 0.10257929 -0.32643273 -0.1904875 -0.50249016 -0.1751358
0.5443322 0.041975886 -0.14750108 -0.3316409 -0.052838568 0.35983968 0.06234446 0.21363154
-0.21741429 -0.20370147 -0.36406568 -0.5167546 0.101707004 0.25778732 0.054733086 0.7586362
-0.11652387 -0.809455 -0.19937186 0.3252308 -0.65862536 -0.21199185 -0.14810611 -0.02838229
0.27560237 -0.23503064 -0.05367126 0.09820813 -0.03703637 -0.18266147 0.17257807 0.024624646
0.24231105 -0.21737246 0.12796551 -0.28595427 -0.23670343 -0.2992048 0.13288656 0.40599337
-0.37471607 0.16128288 0.3104194 0.6954011 -0.3699061 -0.3954477 0.4918591 0.24233817
-0.0050035715 -0.24710378 -0.20475096 -0.15107514 0.06852964 0.33829126 -0.23898092 -0.5728253
0.060640436 0.068603486 -0.116091035 0.123756 -0.74577093 -0.22912326 0.14352481 -0.88667035
0.22888553 0.1797119 0.044026643 -0.27797383 0.11680549 -0.033672355 0.12404521 -0.12348845
-0.38468912 0.22915426 -0.35943863 0.12758517 -0.1532991 0.30727622 0.21006055 0.34280187
0.10505043 -0.034198757 0.028101265 -0.19776393 0.98448557 -0.01984234 -0.4932196 0.35370275
0.15091273 0.068435915 -0.24687907 -0.299806 0.18349165 -0.047195062 0.25556543 0.19657327
-0.04083755 -0.159851 0.35097772 0.26456156 0.24000223 -0.13509646 0.9670579 -0.107886225
-0.27669957 -0.2454837 -0.044371065 -1.0587701 -0.09762631 0.58476794 0.25123918 0.05433814
-0.22838484 0.024102056 -0.1271762 0.16814353 -0.16364464 0.11972775 -0.3826731 1.1047307
0.117546745 -0.226017 -0.33494857 0.31200498 0.17644951 -0.1137275 0.40405363 0.22884515
0.15170991 -0.34897053 0.23813297 0.41436374 0.10990931 0.2993508 -0.019129032 -0.85954756
0.26350227 0.13961594 0.6467811 -0.61084664 -0.3278774 0.8767306 -0.4561765 -0.06385606
0.21474811 -1.3924997 0.00029729187 0.13838427 0.2971585 0.6178967 0.38678405 0.74494034
-0.07341102 0.31760895 -0.262186 -0.12650634 -0.070194446 -0.065809295 0.11583458 -0.25356555
-0.08570682 -0.22759958 -0.24337682 0.27158186 0.40937468 -0.42400625 0.621339 0.43293384
-0.077610016 0.17817567 -0.054865442 -0.03782325 -0.06493434 -0.13470802 0.06707622 0.01595725
-0.15644735 -0.033622064 0.004453142 -0.22684474 -0.51397645 0.15453888 -0.13134755 0.07103172
0.06525832 0.32661211 -0.44334778 0.06899401 -0.15065655 0.12097296 0.06614129 -0.076455615
0.10103059 0.09157299 0.07985894 0.1348427 -0.07579548 -0.19250204 0.18831174 -0.032621466
0.1109678 -0.055003647 0.08759977 0.04555132 0.3142166 -0.06062802 -0.21251479 -0.19582732
-0.08293441 -0.15293807 -0.12081319 0.19971971 -0.06818723 0.11458255 0.025249055 0.11864493
0.018061945 -0.17035234 -0.053103793 -0.6652967 -0.11292299 0.22443144 -0.055248473 0.09499788
-0.051126335 -0.11375364 -0.01623224 0.18678373 -0.070860274 0.19680603 0.106523655 -0.0857318

rits_f.rnn_cell.bias_ih f4 [256]
00000000: 2d9a cd3d a87c bf3d 482d 713e 2663 9fbc
00000010: 0d9b 2abd 905d 3c3d 73e8 9d3d fc96 b63d
00000020: 001c b23d 7333 1e3d 9cc1 263c 79de 183e
00000030: a44e 033e 5e73 f93d daf2 a0bd 4abe 49bd
00000040: bfa5 8c3e 5e74 a23c 79ff ef3d cf30 a9bc
00000050: bddd 083e f935 313e 0ef1 b23d b888 d83d
00000060: d937 abbd 4c6d 86bb f8a1 4c3d df10 4b3e
00000070: b2dc 9a3d 66a3 8d3c 79fe f9bd b531 a93d
00000080: 1c39 453d f725 e93d e6e2 11bd d2f1 ba3c
00000090: e155 a23d 486e 903d 5cb5 a63e 6bf4 1c3e
000000a0: df2c 7abd 231a 413e bc27 6a3d 88ec 333e
000000b0: 16f6 7e3e 50c3 a33d c4b7 9e3d 9885 293e
000000c0: d664 363e 25e2 d93b bd8b 89bd af19 373d
000000d0: b6e0 733d 7cfb 513c 42a8 afbc fbf0 ba3d
000000e0: d77e 3dbc 14d4 9c3d c82f 823e bcbd 8e3e
000000f0: 8fe6 103d ca25 ae3d 7449 f13c 6556 473e
00000100: f800 8a3d f261 3b3c f9d1 673d effd 063e
00000110: 8f5a 023d ce1e 343e eacc 023d 184f 093d
00000120: df99 513e 5d31 7c3d 07b5 bb3b dc3a 123e
00000130: f2c2 483d 7966 bb3d d46e c03c 520d c339
00000140: c518 dd3d 9a09 403d f81b e2bd 8a09 2abd
00000150: 0ad4 3fbd c933 113e 0c89 9a3d 12f2 0a3e
00000160: 0a1e 2d3d f1d5 bb3b 975c ae3d 90ea 1f3d
00000170: 11de 0f3e 0160 463d b13c 853e 4327 073c
00000180: 3d5f cb3c 8d43 193d 8262 083e 497c 763d
00000190: e1af 7f3c 652a 933d f647 8abc 6f92 be3b
000001a0: 1df3 463e 7ccc acbb e44d 163e d1ef a5bd
000001b0: 36e2 86bd 6906 9f3d 10e1 86bd 0ede 783e
000001c0: cfb9 fc3d 32f6 5a3d 286c b93d af45 ff3d
000001d0: ff34 cd3b 7912 b03d 3dce 163e 56c6 20bd
000001e0: 1d98 ae3d 5864 4e3d c48d 383e eb90 07bc
000001f0: 1b43 0d3e 0627 08bd 5d1b 643d 056f 133d
00000200: ea79 9e3d 3adc 20be 12f5 5ebb 17f0 0ebe
00000210: d5a8 67bd 9787 db3c 51be f2bd c46a bc3c
00000220: d556 2dbd 0dba 453d d385 cabc d1f0 363e
00000230: 59bd b8bd a519 a3bd 5a95 ae3d 9abf 7abc
00000240: 9908 d43c b564 093e 3bd3 cc3b a85b a8bd
00000250: 92b7 dd3d b34a b0bc 74ac f53d 3c3d abbd
00000260: 74e8 bc3d 7d50 78bd 04bc b73b 0437 bcbd
00000270: e1ca 2b3e a2b7 413c 7c6f 8abd e7bf 12bd
00000280: ac6d 1d3e c288 52be 8f04 35bd 45aa b03d
00000290: 972e 8c3d 0626 023e 0779 6b3d e4ad fd3d
000002a0: f275 c53d 39e1 213c cef0 52bd 3b7f 47be
000002b0: 292d 453d 7a04 063e 2527 c6bd 48b3 c9bd
000002c0: 3037 e03c 9f33 81bc 05c4 fabd 2f4d 983d
000002d0: 75c0 01bd 81ae 7ebd 0028 173e d1e3 b33d
000002e0: 714e 8c3c 50cc 81bd 6005 07be 7233 8c3e
000002f0: eb60 d2bd ad76 033e e48f 3dbd b677 033e
00000300: 75a0 483d 489f 8c3d 40c8 c53e 4f45 4f3e
00000310: 12cc fdbc 507a 743e 8c9b 6d3e 2199 153e
00000320: 8cba d93d f1d6 7fbd e5ae 51bc e695 d53d
00000330: 83cd 233e 9510 bf3d 6902 b43e 0172 503e
00000340: 7676 8a3d e74b 323e db24 783e f2e2 343d
00000350: f9e5 a93e 6594 403e e460 483e e22c 56bd
00000360: 9c08 3c3e 0e91 803d 531a 953d 0857 963e
00000370: de1e 663e 6efd 233d 6070 183d a70e 283e
00000380: 4c8e 7a3e 7669 903e 1c9b 0a3e a6cf 9c3d
00000390: f045 c53e 288a ce3d aa5e 733e 9d08 033d
000003a0: c790 823d 75fe 5f3e 245e 143d 52d6 183e
000003b0: b4d8 673e cf6e b5bc 86cc e23d 93ed ad3d
000003c0: fffc 003e 7cda abbd 2804 4d3e e9d9 813e
000003d0: 5340 91bd ba1a 053e 377f 1e3e 9819 aabc
000003e0: f1a9 5e3e cf46 e13c 38f5 133e 23f8 1c3e
000003f0: 198a 8c3d 64bd aa3c 6f89 683d 646c 4d3e
0.10039172 0.09349948 0.2355243 -0.019456457 -0.041651774 0.045987666 0.07710352 0.08915517
0.08696747 0.038623285 0.010177996 0.14928617 0.12822968 0.12180208 -0.0785882 -0.04925374
0.27470204 0.019830879 0.117186494 -0.020653157 0.13365836 0.17305745 0.08737384 0.10572952
-0.083602615 -0.0041023847 0.049959153 0.19830655 0.075616255 0.017289829 -0.1220674 0.08261434
0.048150167 0.11384194 -0.035616778 0.022820387 0.07926536 0.070522845 0.3256024 0.15327613
-0.06107795 0.18857627 0.0571668 0.17570698 0.24898562 0.07996237 0.07749894 0.16554868
0.17811903 0.006649273 -0.06716106 0.04470223 0.059540473 0.012816306 -0.021442536 0.091279946
-0.0115658855 0.07657638 0.2542708 0.2787913 0.035376128 0.085033014 0.02945397 0.1946655
0.06738466 0.011436926 0.05659673 0.13182805 0.031824645 0.17589876 0.031933703 0.033522695
0.20468853 0.061570514 0.0057283673 0.14280266 0.04901404 0.091504045 0.023490347 0.00037203223
0.1079574 0.046884157 -0.11040491 -0.041513003 -0.046833076 0.1417991 0.07545671 0.13568905
0.042264976 0.005732291 0.08513754 0.039042056 0.14049555 0.0484314 0.26022866 0.008249107
0.024825687 0.037417937 0.13318828 0.06017712 0.015605898 0.071858205 -0.016880017 0.005815796
0.19428678 -0.0052734 0.1467815 -0.08102382 -0.06586115 0.077648945 -0.06585896 0.24303457
0.12340128 0.053457446 0.09053832 0.12464463 0.006262421 0.085972734 0.14727111 -0.039251648
0.08525107 0.050388664 0.1802283 -0.008274297 0.1379513 -0.03324034 0.05569016 0.03599455
0.07738097 -0.1570901 -0.0034020585 -0.13958775 -0.056557495 0.026798053 -0.11852706 0.023000129
-0.042319138 0.048273135 -0.024722015 0.17865302 -0.0902049 -0.07963876 0.0852458 -0.01530447
0.025883006 0.13417323 0.0062507666 -0.08220607 0.10826029 -0.021519994 0.119957834 -0.08361289
0.092240244 -0.060623635 0.00560713 -0.09190181 0.16776611 0.011823567 -0.06759545 -0.035827544
0.15373868 -0.20559981 -0.0441938 0.08626226 0.06844824 0.12709817 0.057488468 0.12386683
0.09641637 0.009880357 -0.05149918 -0.19482128 0.04813877 0.13087645 -0.09675435 -0.09848648
0.027370065 -0.015771685 -0.12244419 0.074365966 -0.031677682 -0.06217814 0.14761353 0.08783687
0.017127248 -0.06337798 -0.13185644 0.27383 -0.10272392 0.1283824 -0.046279803 0.12838635
0.04898115 0.06866318 0.3862934 0.20241283 -0.030981097 0.23874784 0.23203868 0.14609195
0.10631284 -0.062460843 -0.012798046 0.104289815 0.15996365 0.09329335 0.3515809 0.20355989
0.06760876 0.17411767 0.24232809 0.044161744 0.33183268 0.18806608 0.19568211 -0.052288897
0.18362659 0.06277667 0.072804116 0.29363275 0.22472712 0.04003661 0.037216544 0.1641184
0.24468344 0.2820546 0.13535732 0.07656793 0.3852992 0.10084945 0.2376658 0.031990636
0.0637527 0.21874411 0.036222592 0.14925507 0.2264126 -0.022147564 0.11074166 0.08492579
0.1259651 -0.08391282 0.20021117 0.25361565 -0.07092347 0.12998477 0.15478216 -0.020764157
0.21744515 0.027499584 0.14449012 0.15329032 0.068622775 0.020842262 0.056771692 0.20060879

rits_f.rnn_cell.bias_hh f4 [256]
00000000: de5a 413d 4f53 53bc 7c1c 0d3e 093d 003e
00000010: 66b8 b63d c0be f23d f5df b03c 386e e23c
00000020: de4e a13d 6556 e83c 882b 1a3e 52a8 2abd
00000030: 3132 71bd 9625 cd3d ba09 2e3b 18c9 3a3e
00000040: 8b28 483e 49c1 713e ac2e dc3c 7617 fb3d
00000050: aba7 6f3e 8701 803e 61f5 5c3d d791 5f3e
00000060: 29d4 da3b 94dc eb3d 899b 813d 7eb7 943e
00000070: 78d9 5d3d 1c20 b93c 7242 bebc 1197 58bc
00000080: 0b3a 043d 6b17 343e e4c9 a43d 7e14 24bd
00000090: 2eee 0e3e bb52 cbbc ea3f a63e a81a c53d
000000a0: d8cc 123e 552d 673e 1f86 81bd 8244 a53d
000000b0: 20b4 803e 5b95 663e de85 bd3d f832 853e
000000c0: d0e1 7b3d c078 46bd 8dab b1bc cfef ac3d
000000d0: c0c7 54bd 980d 943c b429 303e e3d1 453c
000000e0: fde1 2e3e 4712 123e bf86 5f3e efc5 f03d
000000f0: 5e63 a43d 8d6c 003e 7343 473e ca54 f43c
00000100: 081e b23d 1ec8 d43d 0b3f cf3d 2041 c83d
00000110: aead 1cbd c847 e03b 3c1c ad3d ca8d a7bd
00000120: 8374 183e 2507 e63d bb68 f83c ecb2 173e
00000130: 1e29 8bbd cf52 913d aee4 6bbc 1b52 0b3e
00000140: 74aa 0b3e 1254 153d e4c5 ecbc 2262 c33d
00000150: f2b9 e83d cc9b f43d 249d 943c 0a81 f83d
00000160: 04dd 013e cc02 053e 61a3 1f3d 81d3 213e
00000170: 7687 60bd f755 f63d 3d59 1d3e c92f 113e
00000180: d8c1 d23d 73b0 a8bb c34c 3e3b b11e 3cbd
00000190: 8e6e 043e e17e 183e 2a32 bfbc 9ad7 19be
000001a0: 9ba2 1c3e 82c1 f8bb 1ccc 86bd d24f ae3b
000001b0: 792d 0a3e 9ef8 533e 4497 05bd 026f 6e3e
000001c0: ad95 f1bd 7dc0 7e39 4a60 a43d 3557 623b
000001d0: 745e c5bc 306e 523d 367d 823d d6e0 23bd
000001e0: bea5 303d 3696 41bc d2dd 8ebc 114f c43d
000001f0: 3ad3 47bc a475 4c3d bb46 acbd 6b69 2c3e
00000200: 405d 85bd 5cd6 3dbe b28b 28bd 5cd3 dcbc
00000210: 4fee f83d 3b53 ff3d 91cc a0bd f0e5 7cbd
00000220: 4846 5b3b 550c da3d 7fc0 07be 6b60 723d
00000230: 022b 7a3d 870e e1bd dca0 293d d50a 213e
00000240: 8525 973b c295 9fbd 43f1 9dbd 6fca 74bd
00000250: d833 97bd 5db0 f13c bcc1 85bc ac13 9e3d
00000260: 40f3 8cbd b63c 8ebb 6e6f a4bd 05f2 5a3b
00000270: edd1 ef3d b5ba 08be b54a 19be ea99 babc
00000280: b8e3 6fbd 8416 45be e5b2 4d3c 65cd 9b3d
00000290: d369 cfbd da17 1d3e e7be 043d 9342 563d
000002a0: a8e1 c33c d8eb 753d 82a0 42bd df3a c2bd
000002b0: ddcd 3d3d 520d 213e 3dba 37bd f46e 0abe
000002c0: d349 66bc 632d ccbc 857d b63d 42a5 4e3d
000002d0: edcb e4bd 3ba5 063e 3ec2 063e 148d 5cbc
000002e0: a1be 7fbd 1dd1 64bd 9440 80be 1128 cc3d
000002f0: f8d8 963c 744c d4bc 1f55 c83d cd8a 733d
00000300: da3e 083e aaf7 4d3d 244e 1e3e 094a 4e3d
00000310: b015 34bc 47be 913e c02d a43e 5fa8 333e
00000320: ae0f 2c3d e31f 37bd 3dbc ee3a 8c11 2e3e
00000330: 58a3 9a3e 2b2d 203e 3a94 533e 6030 4b3d
00000340: c9f9 3a3e 0d77 563e 7e4f 863e 2a0c 87bd
00000350: 4d3f 853e 7c27 db3d e3df 633d 1398 e53d
00000360: 9094 d43d 2f04 a13d 294e 443e ccaa b13e
00000370: d699 253e a4a2 993d a2dd 213e 5bbe 173e
00000380: b777 fe3d 17a7 703e 500f cebc 2bf1 483c
00000390: c885 583e 8729 c33b 642b 173e c5b1 03bd
000003a0: ae2d 4e3e e3b2 fb3d 570d 8d3d f51c cbbc
000003b0: c694 153d 4d5a 9ebb fae7 793e 023e 783e
000003c0: decf 983d ae99 193e 297a 313c 32e0 203e
000003d0: ab26 5f3d ab33 ac3d 73a0 933e 9564 f23d
000003e0: 61a8 e83d 721f 193e 02be bc3c abfc 903c
000003f0: d879 243d b5ff 573e 2bb3 7f3e 746f 333e
0.0472058 -0.01289828 0.13780397 0.12523283 0.0892189 0.11852789 0.021591166 0.027640447
0.07876371 0.028361509 0.15055668 -0.04166443 -0.058885757 0.100169346 0.002655609 0.18240774
0.19546716 0.23608889 0.026877724 0.12260334 0.23403804 0.25001165 0.05394495 0.21832977
0.0066781235 0.11516681 0.06328494 0.29046243 0.054162472 0.022598319 -0.023225043 -0.013219611
0.032281917 0.17587058 0.0804632 -0.040058605 0.13958046 -0.024819722 0.32470638 0.09624225
0.14335954 0.22575887 -0.0632441 0.080697075 0.25137424 0.22517912 0.09254049 0.2601545
0.06149465 -0.048455 -0.021688247 0.08444177 -0.05194831 0.018072888 0.17203408 0.012073967
0.17078395 0.14264785 0.21828745 0.11756503 0.08026765 0.12541409 0.19459324 0.029825587
0.08697134 0.10389732 0.10119446 0.097780466 -0.03825157 0.0068444945 0.08452651 -0.08181341
0.14888196 0.112318315 0.030323377 0.14814347 -0.06794952 0.070958726 -0.014397783 0.1360554
0.13639241 0.03645713 -0.028902955 0.09540202 0.11363591 0.119437784 0.018141337 0.12133987
0.12681967 0.12989348 0.03897417 0.15803339 -0.054816686 0.12028115 0.15366073 0.14178385
0.10290879 -0.0051479875 0.0029037453 -0.045927707 0.12932798 0.1489215 -0.02333935 -0.15023652
0.15296404 -0.0075914273 -0.065818995 0.005319574 0.13493909 0.20700309 -0.03261496 0.23284534
-0.117961265 0.00024295035 0.08026178 0.0034536843 -0.02409289 0.051374614 0.06371538 -0.040009342
0.043126814 -0.011815598 -0.017439757 0.09585393 -0.012196356 0.04991688 -0.08411928 0.16837089
-0.06511927 -0.18538803 -0.04114885 -0.026956253 0.12154829 0.12467047 -0.07851518 -0.061742723
0.003345864 0.106468834 -0.13257025 0.059173983 0.06107617 -0.10989099 0.041413173 0.15726788
0.004612627 -0.07792236 -0.07712033 -0.05976337 -0.07382935 0.029503042 -0.016327731 0.07718596
-0.06882334 -0.0043407334 -0.08029066 0.0033408415 0.11709962 -0.13352473 -0.14969905 -0.02277847
-0.05856678 -0.1924687 0.012554859 0.07607535 -0.10127606 0.1534113 0.03240862 0.052309584
0.023911312 0.06003937 -0.047516353 -0.09483885 0.046338905 0.15727738 -0.044855345 -0.13518888
-0.014055687 -0.024923986 0.0891066 0.05045057 -0.11171708 0.13148968 0.13160035 -0.01346137
-0.062437657 -0.05586349 -0.2504927 0.099685796 0.018414006 -0.025915362 0.097818606 0.059458543
0.13305226 0.05028502 0.15459496 0.050363574 -0.010991499 0.28465483 0.32066154 0.17544697
0.04200714 -0.044708144 0.0018214058 0.16998881 0.30202746 0.1564223 0.20662013 0.04960668
0.18259348 0.20943852 0.26232523 -0.06594117 0.26024857 0.107008904 0.055633437 0.112106465
0.103798985 0.07862126 0.1917044 0.3470062 0.16171965 0.07501724 0.15807202 0.14818709
0.124251775 0.2350124 -0.025153786 0.01226453 0.21144783 0.005955878 0.14762646 -0.032151956
0.20134613 0.12289979 0.0688731 -0.024794081 0.036518835 -0.004832542 0.24404898 0.24242404
0.074615225 0.1500003 0.010832348 0.15710524 0.054480236 0.084082924 0.2883335 0.11835591
0.11360241 0.14953402 0.023039822 0.017698606 0.04015526 0.21093638 0.24970691 0.17522985

rits_f.temp_decay_h.W f4 [64, 20]
00000000: a6a4 8fbe 1910 c3bc 19e5 203e 4e58 67ba
00000010: c3fe 0dbe 63f3 49be 21b2 8cbd a9ab 9abd
00000020: b215 483c d47c 6abe 5f3f b0bc d8ab 0e3e
00000030: 0741 ac3e f437 1e3e ebc0 abbe ae91 763e
00000040: 7b9d 93bd 5c87 79be 7195 95bd 08fc 933e
00000050: 6916 77be dce8 d8bb 2feb 113d 0c55 09be
00000060: 67c7 b03e 045d 54bd 4647 473e 5776 15be
00000070: d814 073f 9891 c73d 20a8 72bc 6e88 96be
00000080: 2675 3c3e 367b 85be 2486 9bbc a632 8cbd
00000090: 72c6 803b 0002 b5be 0dd3 48be 9d10 08bd
000000a0: 2f0b a7bd 5297 313d 05de f6bd 5a45 d1bd
000000b0: 0c89 29bb e0da 0fbd 4dfb 873d fc5e c93d
000000c0: 7ab4 d9bd 8e48 23bd 972a aebd 93bd 973d
000000d0: 48c7 5cbd 39c0 0bbe a19e 7cbd 3f95 343c
000000e0: e672 eebd fed2 5a3d ecb7 3ebd e577 bd3d
000000f0: ca9d 16bc 897e dabd cc6f 133e 900b 183d
00000100: fb97 6ebd acd3 97bd 6ea2 04bd c187 b9bc
00000110: f2c9 1ebd c171 213e 5d69 263d 7ddd f4bd
00000120: e07e 5d3d b942 693d 9b88 a9bd f2c8 04be
00000130: 1452 13be 39bf 17be 2634 4cbd a890 96bd
00000140: 7463 b2bd dc98 f5bd e0f4 cfbb 48d2 8b3c
00000150: 100b 39bd 56e4 a2bd 5286 bebd 7009 77bc
00000160: 988c f13d 7244 95bd 4c7f 32bd 6863 fbbd
00000170: 6a43 ec3d 1c09 12bd 9e10 fdbd b053 6d3c
00000180: 266a dbbd 0cdb adbd 6c93 2a3d fe0e d13d
00000190: 5c43 b9bd bb60 c0bb bc06 c6bd 654c 8e3d
000001a0: 4010 2fbd 66a5 71bd 2272 d63c d6e3 7ebd
000001b0: 0054 cebc 0d63 bfbd ab80 ebbc 9099 a73d
000001c0: 0466 01be 9606 983d 715a 203d 174c 0ebd
000001d0: 2975 003d 0343 eebd 7d28 cc3b e339 563d
000001e0: 4272 8bbd c320 65bd f49d 9a3c 3130 a3bd
000001f0: 0bf1 40bd 963e 773d 5d1d a83d 795b 07bd
00000200: f86d 31ba 809f f7bd adfd 80bd 01b7 64b9
00000210: 71ea f3bd a31b 5c3d a89d 883d f1de 10be
00000220: f201 443c 8f7f 973c 0505 0cbd 5b38 69bd
00000230: 8f32 f1bc 42f4 babe 0709 3cbe 2f45 4b3d
00000240: 791f c8bc 33ed b03e 19ca 53be 8787 f63d
00000250: dba3 38be 6529 b4be e1ea 783e a864 29be
00000260: 4972 a5bc e57b babd 75cc 743e 0514 b6be
00000270: 9877 c2bd b310 b43d dc3b 0d3e 96f8 d73e
00000280: d209 bcbd f5e8 b33b 36bf ce3c 97ef 3dbd
00000290: e8a4 b7bd f051 933d 49fd 14be 2d93 1abe
000002a0: 62f4 7e3b 9fc1 9c3d fe0e 3fbd c2f9 dbbd
000002b0: a743 6e3d 8bac 943d dc15 b3bd 0d1b 813d
000002c0: 9cb4 e13c 8c8d 41bd 1231 92bd 3f9f 2a3c
000002d0: d92b 8fbd 5ddd 153c 29ed 8ebd fad4 cebd
000002e0: 539f f2bc f10a c3bc bf88 2fbd 5570 d63c
000002f0: a0f8 05be 0224 263d 37ef bfbd c286 6dbd
00000300: 9982 febd 9395 16be d081 8ebd 7b79 3f3d
00000310: 1f2a d1bd 6609 2cbe db5c ffbd 08cc 2ebe
00000320: e593 de3d a1ee c53c b418 b63e 235c 91be
00000330: 2c0e 3cbe 0867 6d3e 27ba 58bc 5ffa 6fbd
00000340: a040 68bd 550d c23c 077e b4be b80c 643e
00000350: 41d5 3f3e 1b2f 5abe 463c c23e 02ec 4abe
00000360: 56bc c5bd 04c6 223d 7d95 b23d 7829 04be
00000370: bf6a cabc 7bef 6ebd 6c07 83bd 2357 9dbd
00000380: 063f bd3d 401f 473d b1ee 1dbd 0475 01bd
00000390: 7c2c bd3c 3c9e a4bd 5292 d1bc 2d21 16be
000003a0: 7554 753d 8c3c fabd cb3b 1e3d 0c3d 81bc
000003b0: 0d06 7e3d eaf0 03be af87 b93d 1107 803c
000003c0: 1f44 91bd 2a19 d2bd 49d4 92bc c0dd 27be
000003d0: a8cf 4ebc 1a77 2f3c 0275 d0bc 5b52 3abe
000003e0: 122e ddbd 5cb9 25be 2ac1 3a3d 43a6 12be
000003f0: a0b7 1bbe 60bc e5bd 9741 b9bd ef72 15be
-0.28055304 -0.023811387 0.15712394 -0.0008825109 -0.13866715 -0.19721751 -0.06869913 -0.07552273
0.012212204 -0.2289918 -0.021514593 0.1393274 0.33643362 0.15451032 -0.33545622 0.2407901
-0.072077714 -0.24368042 -0.07303894 0.28903222 -0.24129643 -0.006619556 0.03562468 -0.13411349
0.34527132 -0.05184652 0.19460782 -0.14595924 0.5276618 0.09744567 -0.014810592 -0.29400963
0.18404064 -0.26070565 -0.018984862 -0.06845598 0.0039299065 -0.35353088 -0.1961176 -0.03321897
-0.0815643 0.0433572 -0.120540656 -0.10218306 -0.002586904 -0.035120845 0.06639729 0.0983257
-0.10630126 -0.039864115 -0.08504217 0.07409205 -0.053900987 -0.13647546 -0.061674718 0.011021911
-0.11643009 0.053423874 -0.04656212 0.09251384 -0.009192893 -0.10668666 0.14398116 0.0371204
-0.05825041 -0.0741342 -0.032381468 -0.02264774 -0.03876681 0.1576605 0.040627826 -0.11956308
0.054076076 0.056948397 -0.082780086 -0.1296728 -0.14386779 -0.1481904 -0.04985442 -0.0735181
-0.087103754 -0.11992046 -0.00634633 0.017068043 -0.045176566 -0.07953708 -0.09302963 -0.015077934
0.11794394 -0.072884455 -0.04357843 -0.122748196 0.11536296 -0.03565322 -0.12356685 0.014485285
-0.107136056 -0.084890455 0.0416445 0.10207938 -0.09046051 -0.005870906 -0.09669253 0.06948165
-0.042740107 -0.058995627 0.02617747 -0.062229 -0.025186539 -0.09345064 -0.028747877 0.081835866
-0.12636572 0.07423131 0.03914875 -0.034740534 0.031361733 -0.11633875 0.0062304125 0.0523013
-0.06808902 -0.055939447 0.018874146 -0.07968176 -0.047104876 0.06036242 0.082087256 -0.03304622
-0.0006768401 -0.12090969 -0.06298385 -0.00021811949 -0.119099505 0.053737294 0.066706955 -0.14147545
0.011963354 0.018493442 -0.034184474 -0.05693851 -0.029443054 -0.3651448 -0.18362819 0.049626525
-0.02442907 0.3455597 -0.20682563 0.120375685 -0.18031256 -0.35187832 0.24308349 -0.16542304
-0.020196097 -0.09105662 0.23906119 -0.3556215 -0.09495467 0.087922476 0.13792366 0.42181844
-0.091815606 0.005490417 0.02523766 -0.04637107 -0.08967 0.07193363 -0.14549746 -0.15095206
0.0038902988 0.07654118 -0.046645157 -0.10740997 0.058169987 0.072594725 -0.08744404 0.06303988
0.027551942 -0.04725413 -0.07138266 0.010413944 -0.06990785 0.009147015 -0.069788285 -0.10099216
-0.029616987 -0.023808928 -0.04285502 0.026176611 -0.13083124 0.040561683 -0.093717985 -0.057989843
-0.12427253 -0.14705496 -0.069583535 0.046746712 -0.10213112 -0.1680046 -0.12468883 -0.17070019
0.108680524 0.024161639 0.35565722 -0.28390607 -0.18364781 0.23183835 -0.013227976 -0.05858838
-0.056702256 0.023687998 -0.352524 0.22270477 0.18733694 -0.21307032 0.3793661 -0.19816592
-0.09655063 0.039739624 0.08719919 -0.12906444 -0.024709104 -0.058333855 -0.063979 -0.07682636
0.092405364 0.048613787 -0.038557712 -0.031605735 0.0230925 -0.08037993 -0.025582466 -0.14661093
0.059894998 -0.1221858 0.03863124 -0.01577618 0.06201749 -0.1288487 0.09059083 0.01562837
-0.07093071 -0.10258706 -0.017923491 -0.16393185 -0.012622751 0.010709548 -0.025446419 -0.18195479
-0.10799803 -0.1618399 0.04559437 -0.14321236 -0.15206766 -0.1121757 -0.090457134 -0.14594625

rits_f.temp_decay_h.b f4 [64]
00000000: 28d0 95bc 5b3b d0bc f4f8 863d 095d 03be
00000010: 1028 813c 6952 af3d 4d9a 91bd fac0 29ba
00000020: 1381 edbc 6c96 6d3d 03eb 9dbe ad2e 89bc
00000030: 92d0 ccbc 6858 6fbd 7b54 d2bd 97cb bfbd
00000040: 8cfa 6bbe 30f9 6d3d 826c a0bd 3327 f9bd
00000050: d965 71be f894 9e3c 7a68 58bd b5f7 1bbe
00000060: 7fa4 a6bd d287 c3bd b8c9 fabd 9627 2e3d
00000070: fc79 b43d 787c f1bb 98cb 3b3d e37a 593f
00000080: 0fa2 9cbc e0b3 243e a277 8dbe a72f fd3c
00000090: 1c72 8a3d c0d1 e2bd 37b1 57bd 16a8 163e
000000a0: 2dc9 143a 5ec4 0abe a463 d8bd 1b7c cebd
000000b0: afa2 43bd 5eea d8bd 4515 73bd 8fc8 5d3d
000000c0: 7d05 3e3c bd1c 89bd 34eb d6bd b7fa ca3c
000000d0: 13ef 913d 20a6 0fbd b8f9 bfbd db77 253d
000000e0: d20f b8ba d998 783d 9ed8 843d 6e38 14be
000000f0: a598 a8bc cf95 57bb 9a7f 883e dca6 92bd
-0.018287733 -0.025418928 0.06590453 -0.12828459 0.015766174 0.0856064 -0.07109509 -0.0006475594
-0.028992211 0.05800478 -0.30843362 -0.01674589 -0.025001798 -0.05843392 -0.102700196 -0.093650036
-0.23044795 0.05809897 -0.07833196 -0.1216568 -0.23574008 0.019358143 -0.05283401 -0.15231211
-0.08136844 -0.0954739 -0.12245506 0.04251822 0.08812329 -0.007369574 0.04584846 0.84953135
-0.019120244 0.16084242 -0.27630335 0.030906511 0.06760046 -0.11075163 -0.05265924 0.14712557
0.00056757295 -0.1355147 -0.1056588 -0.10082265 -0.04776257 -0.10591577 -0.059346456 0.054146346
0.011597988 -0.066949345 -0.1049408 0.024777753 0.07125678 -0.03507054 -0.09373802 0.040397506
-0.0014042801 0.060692642 0.06486629 -0.14474651 -0.0205806 -0.003289569 0.26659852 -0.07160732

rits_f.temp_decay_x.W f4 [20, 20]
00000000: 5afd 50bd 384b 4a3e e4f0 31bd e096 0abd
00000010: 1ad2 5f3e 9868 cf3c 0082 04bb 92fa 15be
00000020: 08f5 413e a8ad 8fbd 6a6d 5b3e 223c 153e
00000030: a5da 5ebe c68e 603e 1861 e1bd f806 ad3d
00000040: 304a 073d 422b 173e bc31 8c3d 6298 20be
00000050: f7b8 20be 95e8 00be a065 29bd aef4 01be
00000060: a4a8 87bd 3cbd a43d 4075 c23d c060 3bbd
00000070: 80aa 03bb 22e0 13be 006a 3d3b a4cd b33d
00000080: 02be 293e 5c9f 00bd e758 27be 103d dcbc
00000090: 4187 2cbe 1830 f03d 704b 743d 89b1 f7bd
000000a0: 0457 1dbd deb5 06be 7600 1c3e 9d3a 29be
000000b0: 6cdc ea3d c09e 243b 70c3 333d 98f5 70bd
000000c0: 78d3 d4bc 80fe 213b f8e7 5a3d 9454 e83d
000000d0: c637 91bd 7e6b 8cbd 2027 babc 24fc 81bd
000000e0: 91f9 43be 384f 123e c826 093e 2028 07bc
000000f0: 70e1 87bc ed02 f7bd 1e4f 58be 0f19 1dbe
00000100: f2e1 15be 7c9b 033e 9f89 5dbe 778d f0bd
00000110: b6da 0b3e 8848 7b3d 8006 bbbb c089 173c
00000120: 72c4 b4bd 0656 623e c01f 6e3b 800f 723d
00000130: aca9 fb3d 8ca4 84bd 50a5 a93d f03c 41be
00000140: c0ec f73b 1ed8 3bbe 38b7 39bd e039 c33d
00000150: c901 a9bc 80a9 723b 94ff b6bd 0b9d f4bd
00000160: 8aa8 1f3e daed 133e d0f2 103e 0014 bd3b
00000170: d412 573e 4045 1bbc 6217 513e fc7f 12be
00000180: b699 4a3e b444 fbbd 2892 5fbe d8a2 c8bd
00000190: 0018 023d a254 64be 2ebd 293e 5a3f 0bbe
000001a0: 7a79 053e 57b5 403e 6029 a33d f8b7 2b3e
000001b0: a3a8 d3bd 9666 4dbe e0c1 ff3d 120c 30be
000001c0: 50b5 163d 8459 573e 8cef db3d 3060 093c
000001d0: 6893 2c3d 520a 383e 4226 5f3e 82a1 2fbe
000001e0: 78d9 bf3d 1126 13be 841d d43d f6a7 12be
000001f0: e865 643d ca83 9bbd 0e4b 18be e86e 083d
00000200: 8eb4 293e e81d 0b3d 8848 43bd 6ba8 0dbe
00000210: fcc3 523e 806f 2fbe 2027 cd3d 7293 20be
00000220: a522 47be a25b 5c3e 7fd7 e2bd bca8 283e
00000230: aa57 5e3e c810 a63c 2802 023e 0285 253e
00000240: 2042 003e ec53 613e 6020 ea3c 8ff6 c83d
00000250: b48c 1b3e feff 383e 086e a03d 007c 1dbd
00000260: 4c7a 253e 48e9 7a3d d4f5 ae3d 70a6 773d
00000270: aec1 2cbe 3078 643c 60de c53c 045f 1ebd
00000280: 9c0a dfbd 144a 7cbd 57d6 ecbd b016 bb3d
00000290: 48a7 0c3e 7802 353d 4212 c8bd f4fe 853d
000002a0: 74d4 88bd 40c2 513c 8396 48be 96e2 fdbd
000002b0: d6b2 9dbd 0f2f f7bd d8ac 29be 2cab 06be
000002c0: 082a 98bc 9218 9abd 54ab 903d 46a8 1c3e
000002d0: cc25 fc3d cc12 3cbe 3097 6abc f6cc aebd
000002e0: c2a2 c6bd 2a1e 243e a079 703c fa68 4c3e
000002f0: 3840 1b3d 5954 d73d 9d64 f7bd 14d5 30bd
00000300: 9231 1c3e 300a 3cbe a423 babd 9be3 38be
00000310: 5297 34be 4c66 34bd 0058 e13d 909d ac3d
00000320: 888d c9bd 3836 cbbd 2861 fabc 84ad b03d
00000330: 7cba 29be 2874 353e d636 3ebe 0072 bab9
00000340: 82e1 22be 760f c2bd 3150 34be 2a23 123e
00000350: c03d bdbd 7c0c 20be f03c 833d ee18 49be
00000360: dc4c dc3d 203a 9abc fc9c 2dbd d8d5 5fbd
00000370: c25e efbd 18ab 66bd b85a 51be 20c9 a73c
00000380: 4018 b6bb 3072 d83d 6592 44be 9432 193e
00000390: 1c56 8dbd 4050 153d da67 51be b328 f7bd
000003a0: 92d3 0a3e ec80 23bd b8a3 3c3e f098 f2bc
000003b0: 1297 643e ba1f 83bd 0000 acb8 a849 a63c
000003c0: 2ca9 55be 60dd 903b 8ad9 2a3e b0e0 2bbe
000003d0: fc11 173e e84b d03d 5c74 e93d f084 74bc
000003e0: 4249 8fbd e0b1 35be c0e7 593e 70a9 013c
000003f0: 2aa7 35be 942c d63d 9057 4f3e aa1a b6bd
-0.051022865 0.19755256 -0.04344262 -0.03383529 0.21857491 0.025318429 -0.0020219088 -0.14646366
0.18941128 -0.07015544 0.21428457 0.1457372 -0.21763094 0.21929464 -0.11004847 0.08448595
0.033029735 0.14762595 0.068454236 -0.1568313 -0.15695558 -0.12588723 -0.041356683 -0.12690994
-0.066239625 0.08043906 0.0949502 -0.045746565 -0.002009064 -0.14440969 0.0028902292 0.08779457
0.16576388 -0.031401977 -0.16342507 -0.026884586 -0.1684847 0.11727923 0.059642255 -0.12094409
-0.038413063 -0.13155314 0.15234551 -0.16526265 0.114678234 0.0025119036 0.043887556 -0.058827966
-0.025979742 0.0024718344 0.05344388 0.11344257 -0.07090716 -0.0685644 -0.022723734 -0.0634692
-0.19138171 0.14288032 0.133937 -0.008249313 -0.01658699 -0.12061105 -0.21123931 -0.1534159
-0.14636973 0.12852281 -0.2163453 -0.11745732 0.1365765 0.061348468 -0.005707562 0.009249151
-0.088265315 0.22103128 0.0036334842 0.059096813 0.12288222 -0.06476697 0.08283484 -0.18870902
0.0075660646 -0.18344161 -0.045340747 0.09532523 -0.020630734 0.00370273 -0.089354664 -0.11944016
0.15591636 0.14446202 0.14155126 0.0057702065 0.21003276 -0.00947696 0.20419076 -0.14306635
0.19785199 -0.122689635 -0.21833098 -0.09796685 0.03176117 -0.2229791 0.16576073 -0.13598385
0.13034621 0.18819176 0.07966876 0.16769397 -0.10334899 -0.20058665 0.124881506 -0.17192104
0.036794007 0.21030241 0.10739049 0.008384749 0.042132765 0.17972687 0.21791938 -0.17151454
0.09367651 -0.1436999 0.10357192 -0.14321885 0.055761248 -0.07593496 -0.14872381 0.033308893
0.16572782 0.033964068 -0.047676593 -0.13833778 0.20582575 -0.17132378 0.10017228 -0.15681246
-0.1944681 0.2151933 -0.11076259 0.16470617 0.21713129 0.020271674 0.12696135 0.1616402
0.12525225 0.2200467 0.02857989 0.09812652 0.15190393 0.18066403 0.07833487 -0.038448334
0.16159934 0.06125763 0.08542982 0.06046146 -0.16870758 0.013944671 0.024153888 -0.038664833
-0.108906955 -0.061594084 -0.115643196 0.09135187 0.13735688 0.044191808 -0.097691074 0.06542769
-0.06681147 0.01280266 -0.19588666 -0.123967335 -0.07700126 -0.120695226 -0.16569841 -0.13151234
-0.01857473 -0.07524218 0.07063928 0.15298566 0.12311897 -0.18366545 -0.0143182725 -0.08535187
-0.09699012 0.16027132 0.014677435 0.1996192 0.03790304 0.10514135 -0.12079737 -0.043171957
0.15253285 -0.18363261 -0.09088829 -0.18055575 -0.17635849 -0.04404287 0.11003113 0.0842849
-0.09841448 -0.09922451 -0.030563906 0.086268455 -0.16575044 0.17720091 -0.18575606 -0.0003556162
-0.15906337 -0.09475605 -0.17608716 0.14271227 -0.092402935 -0.15629762 0.06408107 -0.19638416
0.10756847 -0.018826544 -0.04238604 -0.054647297 -0.116879955 -0.05631551 -0.20444763 0.020481646
-0.00555709 0.105686545 -0.1919647 0.149607 -0.0690119 0.036453485 -0.20449772 -0.1206831
0.1355727 -0.03991787 0.18421829 -0.029613942 0.22323254 -0.06402536 -8.201599e-05 0.020298794
-0.20865315 0.004420921 0.16684547 -0.1678493 0.14752954 0.10170728 0.11399147 -0.014924273
-0.06996395 -0.17743635 0.21279812 0.007913932 -0.1773955 0.10457721 0.20248246 -0.088918045

rits_f.temp_decay_x.b f4 [20]
00000000: caa8 4c3d ee40 80bd b6ca e23c 26d1 45be
00000010: 2f65 d6bd eb45 a2bd 40fd 13bb 7fae 033e
00000020: 0852 0bbd a118 cf3c d8cd 793d d0ee db3d
00000030: 6499 303e ac4d 4cbe c136 58be 481a 4c3d
00000040: cf75 82be ddf8 0a3e f9a9 443e bbc5 3b3b
0.049965657 -0.06262384 0.02768455 -0.19318065 -0.10468518 -0.07923492 -0.0022581369 0.12859534
-0.034013778 0.025280299 0.060987324 0.10738909 0.17246014 -0.19951504 -0.21114637 0.04982975
-0.25480506 0.13571496 0.19205464 0.0028651792

rits_f.temp_decay_x.m f4 [20, 20]
00000000: 0000 803f 0000 0000 0000 0000 0000 0000
00000010: 0000 0000 0000 0000 0000 0000 0000 0000
00000020: 0000 0000 0000 0000 0000 0000 0000 0000
00000030: 0000 0000 0000 0000 0000 0000 0000 0000
00000040: 0000 0000 0000 0000 0000 0000 0000 0000
00000050: 0000 0000 0000 803f 0000 0000 0000 0000
00000060: 0000 0000 0000 0000 0000 0000 0000 0000
00000070: 0000 0000 0000 0000 0000 0000 0000 0000
00000080: 0000 0000 0000 0000 0000 0000 0000 0000
00000090: 0000 0000 0000 0000 0000 0000 0000 0000
000000a0: 0000 0000 0000 0000 0000 803f 0000 0000
000000b0: 0000 0000 0000 0000 0000 0000 0000 0000
000000c0: 0000 0000 0000 0000 0000 0000 0000 0000
000000d0: 0000 0000 0000 0000 0000 0000 0000 0000
000000e0: 0000 0000 0000 0000 0000 0000 0000 0000
000000f0: 0000 0000 0000 0000 0000 0000 0000 803f
00000100: 0000 0000 0000 0000 0000 0000 0000 0000
00000110: 0000 0000 0000 0000 0000 0000 0000 0000
00000120: 0000 0000 0000 0000 0000 0000 0000 0000
00000130: 0000 0000 0000 0000 0000 0000 0000 0000
00000140: 0000 0000 0000 0000 0000 0000 0000 0000
00000150: 0000 803f 0000 0000 0000 0000 0000 0000
00000160: 0000 0000 0000 0000 0000 0000 0000 0000
00000170: 0000 0000 0000 0000 0000 0000 0000 0000
00000180: 0000 0000 0000 0000 0000 0000 0000 0000
00000190: 0000 0000 0000 0000 0000 0000 0000 0000
000001a0: 0000 0000 0000 803f 0000 0000 0000 0000
000001b0: 0000 0000 0000 0000 0000 0000 0000 0000
000001c0: 0000 0000 0000 0000 0000 0000 0000 0000
000001d0: 0000 0000 0000 0000 0000 0000 0000 0000
000001e0: 0000 0000 0000 0000 0000 0000 0000 0000
000001f0: 0000 0000 0000 0000 0000 803f 0000 0000
00000200: 0000 0000 0000 0000 0000 0000 0000 0000
00000210: 0000 0000 0000 0000 0000 0000 0000 0000
00000220: 0000 0000 0000 0000 0000 0000 0000 0000
00000230: 0000 0000 0000 0000 0000 0000 0000 0000
00000240: 0000 0000 0000 0000 0000 0000 0000 803f
00000250: 0000 0000 0000 0000 0000 0000 0000 0000
00000260: 0000 0000 0000 0000 0000 0000 0000 0000
00000270: 0000 0000 0000 0000 0000 0000 0000 0000
00000280: 0000 0000 0000 0000 0000 0000 0000 0000
00000290: 0000 0000 0000 0000 0000 0000 0000 0000
000002a0: 0000 803f 0000 0000 0000 0000 0000 0000
000002b0: 0000 0000 0000 0000 0000 0000 0000 0000
000002c0: 0000 0000 0000 0000 0000 0000 0000 0000
000002d0: 0000 0000 0000 0000 0000 0000 0000 0000
000002e0: 0000 0000 0000 0000 0000 0000 0000 0000
000002f0: 0000 0000 0000 803f 0000 0000 0000 0000
00000300: 0000 0000 0000 0000 0000 0000 0000 0000
00000310: 0000 0000 0000 0000 0000 0000 0000 0000
00000320: 0000 0000 0000 0000 0000 0000 0000 0000
00000330: 0000 0000 0000 0000 0000 0000 0000 0000
00000340: 0000 0000 0000 0000 0000 803f 0000 0000
00000350: 0000 0000 0000 0000 0000 0000 0000 0000
00000360: 0000 0000 0000 0000 0000 0000 0000 0000
00000370: 0000 0000 0000 0000 0000 0000 0000 0000
00000380: 0000 0000 0000 0000 0000 0000 0000 0000
00000390: 0000 0000 0000 0000 0000 0000 0000 803f
000003a0: 0000 0000 0000 0000 0000 0000 0000 0000
000003b0: 0000 0000 0000 0000 0000 0000 0000 0000
000003c0: 0000 0000 0000 0000 0000 0000 0000 0000
000003d0: 0000 0000 0000 0000 0000 0000 0000 0000
000003e0: 0000 0000 0000 0000 0000 0000 0000 0000
000003f0: 0000 803f 0000 0000 0000 0000 0000 0000
1.0 0.0 0.0 0.0 0.0 0.0 0.0 0.0
0.0 0.0 0.0 0.0 0.0 0.0 0.0 0.0
0.0 0.0 0.0 0.0 0.0 1.0 0.0 0.0
0.0 0.0 0.0 0.0 0.0 0.0 0.0 0.0
0.0 0.0 0.0 0.0 0.0 0.0 0.0 0.0
0.0 0.0 1.0 0.0 0.0 0.0 0.0 0.0
0.0 0.0 0.0 0.0 0.0 0.0 0.0 0.0
0.0 0.0 0.0 0.0 0.0 0.0 0.0 1.0
0.0 0.0 0.0 0.0 0.0 0.0 0.0 0.0
0.0 0.0 0.0 0.0 0.0 0.0 0.0 0.0
0.0 0.0 0.0 0.0 1.0 0.0 0.0 0.0
0.0 0.0 0.0 0.0 0.0 0.0 0.0 0.0
0.0 0.0 0.0 0.0 0.0 0.0 0.0 0.0
0.0 1.0 0.0 0.0 0.0 0.0 0.0 0.0
0.0 0.0 0.0 0.0 0.0 0.0 0.0 0.0
0.0 0.0 0.0 0.0 0.0 0.0 1.0 0.0
0.0 0.0 0.0 0.0 0.0 0.0 0.0 0.0
0.0 0.0 0.0 0.0 0.0 0.0 0.0 0.0
0.0 0.0 0.0 1.0 0.0 0.0 0.0 0.0
0.0 0.0 0.0 0.0 0.0 0.0 0.0 0.0
0.0 0.0 0.0 0.0 0.0 0.0 0.0 0.0
1.0 0.0 0.0 0.0 0.0 0.0 0.0 0.0
0.0 0.0 0.0 0.0 0.0 0.0 0.0 0.0
0.0 0.0 0.0 0.0 0.0 1.0 0.0 0.0
0.0 0.0 0.0 0.0 0.0 0.0 0.0 0.0
0.0 0.0 0.0 0.0 0.0 0.0 0.0 0.0
0.0 0.0 1.0 0.0 0.0 0.0 0.0 0.0
0.0 0.0 0.0 0.0 0.0 0.0 0.0 0.0
0.0 0.0 0.0 0.0 0.0 0.0 0.0 1.0
0.0 0.0 0.0 0.0 0.0 0.0 0.0 0.0
0.0 0.0 0.0 0.0 0.0 0.0 0.0 0.0
0.0 0.0 0.0 0.0 1.0 0.0 0.0 0.0

rits_f.hist_reg.weight f4 [20, 64]
00000000: d4e8 593e ae51 cfbe a494 94be c0d3 203e
00000010: 9b96 433d 6dda 7dbe 2951 2dbe b203 73be
00000020: 3b8e 643e 9f56 013e 1dca 1fbe 2947 013e
00000030: 2e05 95be 20f9 9d3e 25d1 0e3d 360a 773e
00000040: 16c2 833e 9c07 0dbe aefe c63e af0c d23e
00000050: 4b53 2cbe 484d 02be 62ff 33be 688f 7c3e
00000060: 2e34 b33d 343e 99be 5937 a7bd 5336 76be
00000070: 6558 0d3e beb0 b33d 87ea 793e 8b88 2ebe
00000080: 7e4c a839 648d 60be 0557 bf3e 0775 613e
00000090: 197d 2c3d 5b9a 09be 288e eebe 5147 283e
000000a0: 3c08 6fbe e355 b5be 4688 113e 0c2b 5d3e
000000b0: f8ba 603e 7c69 143e 5489 c73d c6c6 9dbe
000000c0: c0bc a43e 9826 a4bc 4d9b 343e 3211 0e3e
000000d0: b029 0fbe 4805 f5bd c857 60bd 42b5 d1bd
000000e0: 0416 8e3d fdf9 acbe d79f 4cbe ef3e 863d
000000f0: b820 983e c4f1 8a3e 20cd 6ebd 6fbf a33d
00000100: 0923 c33e 54ff e4be e444 d8be 2c54 243d
00000110: b2e8 3fbe 6a30 33be 9e80 80bd d58a 77be
00000120: e7a5 933e 90f4 d83d 9243 5fbe 8ca8 bf3e
00000130: 401b bcbe bf53 9e3e 6411 98bc 2721 af3d
00000140: 8def ff3d cc92 91bd c893 c43e 41af e13e
00000150: 0245 88be ccc9 81be 13cf cdbe 6295 ca3d
00000160: 8829 793e 5750 a2be 58ce f1bd c893 b2be
00000170: ed21 2c3e 1be2 22bd 2e67 de3d 6c46 b3bc
00000180: a3e3 0e3e b9d5 56be 778d 003f 1d13 193e
00000190: 8424 b63d 027b d8bd 53d6 42bf 9e54 a93e
000001a0: 2180 36be 39d0 3fbe 9945 733d 6f6d 7e3e
000001b0: 9f68 e53e a87d 483e 67df 83bd 4828 6dbe
000001c0: a81b 963e 1c08 16be 0fb6 ba3d 9798 383e
000001d0: 3750 d1bd 9aef b5bd 19e6 293e 4bb6 7c3c
000001e0: 4f5a 183c d8d5 e1be 66ac b3bd 5f76 ef3d
000001f0: 4e68 b73e 1876 ae3e e073 973b 872f 2fbe
00000200: b79d 2b3e b75d d0be a890 88be 475d 453e
00000210: 88d0 483d 9daf 73be e8cc 27be 8ab8 2ebe
00000220: 5189 803e 2388 0f3e e35d 3abe da3a c03d
00000230: 8b19 85be 30ad 943e 513d 7d3d 104e 603e
00000240: 7e9c 6d3e eb0d 0fbe 60ad af3e 962c bd3e
00000250: 783c 0fbe 7568 cdbd 2496 55be 4788 743e
00000260: 3271 e53d 8fac 83be be74 dcbc 8bec 6abe
00000270: f868 013e 02ec d23d 4072 6f3e 0a28 e1bd
00000280: 37e5 653c 535b 82be 19b6 bb3e 9c75 4a3e
00000290: 8535 bf3d ea8c 1fbe 7407 debe e13e f83d
000002a0: a821 81be 4f6c a9be cc0a f23d 091b 4c3e
000002b0: 1a87 553e 39b9 173e 48d4 c03d 74f3 92be
000002c0: 3f07 a43e 10d6 06bd 58ef 163e 86bb f93d
000002d0: e23c 18be 0523 fabd 7450 05bd a210 00be
000002e0: d317 663d 29b8 b3be 60f4 4cbe 287b 343d
000002f0: b682 923e 3edc 6e3e b156 d9bd 45d5 933d
00000300: fbfc dd3d bb51 96be 4a2b 4fbe 2a86 7a3e
00000310: 1bdd 403e 4f6e 85be 4c99 7bbe 5be3 6ebe
00000320: b1a2 383e ef31 fa3d 557d 97bd 8dd6 95bd
00000330: 4a6d 67be 5cda 923e bae9 8e3d 9f5f a23e
00000340: ee4d a13e d396 36be 7459 b13e 0ab4 b83e
00000350: afc9 bdbd 148f 15bd 0d09 0cbd b6ff a63e
00000360: 6fd2 bcbc 9883 8fbe 9ca1 d0bd f5a7 1cbe
00000370: bdaf 283e ddab 453e cfb7 9d3e 3b4e 5fbe
00000380: 248f 81bd adb1 70be 3763 913e f7eb 903e
00000390: cd1f a73b 28e4 16be f23f 81be d17a 1c3d
000003a0: 52a5 87be 5002 d8be 90e3 4d3e 89a1 423e
000003b0: 95db 113d fecd db3d 0b76 423e df5d aabe
000003c0: 68c8 b03e 8923 e23b 9b64 6d3e f4bf c43d
000003d0: 6413 3fbe 644b dabd 8770 46be e460 2abe
000003e0: ebe0 9d3d 918e 73be 146b 8bbe 8326 ae3d
000003f0: 0109 843e c7f1 533e 8932 dbbd 516c 743e
0.21280223 -0.40492004 -0.29019654 0.15705776 0.04775105 -0.24790354 -0.16925491 -0.23731878
0.22319882 0.126307 -0.15604444 0.12624802 -0.29105514 0.3085413 0.034867425 0.24124989
0.25734013 -0.13772434 0.3886618 0.41025302 -0.16828649 -0.12724793 -0.1757789 0.2466408
0.08750187 -0.2993027 -0.081648536 -0.2404416 0.13803251 0.08773945 0.24405871 -0.17044275
0.00032100448 -0.21928936 0.37371078 0.22017299 0.04211149 -0.13437788 -0.46592832 0.16433455
-0.23342985 -0.3541709 0.1421214 0.21598452 0.21946323 0.14493364 0.0974299 -0.30815715
0.32175255 -0.020037934 0.17637368 0.13873747 -0.13980746 -0.11963898 -0.054771215 -0.1023965
0.06937793 -0.33784476 -0.19982849 0.065549724 0.29712462 0.27137578 -0.05830109 0.079954974
0.38112667 -0.4472605 -0.4224006 0.040119335 -0.1874111 -0.17498937 -0.06274532 -0.24174054
0.2883751 0.105935216 -0.2180312 0.3743328 -0.3673954 0.30923268 -0.01856298 0.08551245
0.124968626 -0.071080774 0.38393998 0.4407902 -0.2661515 -0.2534927 -0.40197048 0.09891774
0.24332249 -0.3170192 -0.11806935 -0.34878373 0.16809817 -0.039766412 0.10859524 -0.021884166
0.13954024 -0.20979966 0.5021586 0.14948697 0.088936836 -0.10570337 -0.7610828 0.3307237
-0.17822315 -0.18731774 0.059392545 0.24846433 0.44806382 0.19579184 -0.06439095 -0.23159897
0.29317975 -0.14651531 0.09116756 0.18026958 -0.10220378 -0.08883591 0.16591682 0.015424321
0.009298875 -0.44108462 -0.08773117 0.11692499 0.35821766 0.34074473 0.0046219677 -0.17107974
0.16759382 -0.406965 -0.26672864 0.19273864 0.049026996 -0.2379746 -0.1638676 -0.17062584
0.25104764 0.14016776 -0.18199877 0.09386225 -0.2599605 0.29038382 0.061826054 0.21904778
0.23204228 -0.13970153 0.34311962 0.3694808 -0.13987911 -0.10029689 -0.20858055 0.2388011
0.11203231 -0.2571759 -0.026911136 -0.22941796 0.12637699 0.10298921 0.23383427 -0.10993965
0.0140317 -0.254603 0.36662367 0.19771427 0.0933638 -0.15581098 -0.4336506 0.12121368
-0.2522099 -0.33090445 0.118184656 0.19932188 0.20852318 0.1481675 0.094154894 -0.28701365
0.32036778 -0.03291899 0.1473974 0.121939704 -0.14866975 -0.12213711 -0.03254743 -0.12506345
0.056175064 -0.3510144 -0.20015097 0.044062763 0.2861535 0.23326203 -0.10612238 0.07218412
0.10839268 -0.2935923 -0.20231357 0.24465242 0.18834345 -0.2606072 -0.24570197 -0.23328917
0.18030812 0.12216555 -0.07396952 -0.07316313 -0.22600284 0.2868222 0.069781736 0.31713578
0.31504768 -0.17830972 0.3463856 0.3607486 -0.09266984 -0.036513403 -0.03418832 0.32616967
-0.023049561 -0.28030086 -0.101870745 -0.15298446 0.16473289 0.19303842 0.30804297 -0.21807186
-0.0632613 -0.23505278 0.28396007 0.28305027 0.0051002265 -0.14735472 -0.252441 0.038203064
-0.26493317 -0.42189264 0.2010634 0.19006933 0.0356098 0.10732649 0.18990342 -0.33274743
0.34527898 0.006901209 0.23182909 0.09606925 -0.1865974 -0.10658911 -0.19378863 -0.16638523
0.07708915 -0.23784854 -0.27230132 0.08503439 0.2578812 0.206977 -0.10702998 0.23869444

rits_f.hist_reg.bias f4 [20]
00000000: 50e3 e5be b83c 09bf 82ef d2be 2802 d5be
00000010: 87c4 b63e 5a55 b03e 9812 833e fac8 cdbe
00000020: dff4 adbe 8d2e f6be 13d5 8dbe a804 d5bd
00000030: 71f0 a7bd 603d ac3c db28 06bf a593 89be
00000040: 9287 73be 9da0 b1bd 832b 1fbc b25a 20bc
-0.44899988 -0.53608274 -0.41198355 -0.41603208 0.35696813 0.34440118 0.25600123 -0.40192395
-0.33975884 -0.4808239 -0.27701625 -0.10401279 -0.082001574 0.02102536 -0.5240609 -0.26870456
-0.23782185 -0.08673213 -0.009714964 -0.009787248
