model_BRITS_LT.model (torch, 406393 bytes, 36 tensors)

rits_f.rnn_cell.weight_ih f4 [256, 42]
00000000: 13ab 1dbc 07af ce3b 4b56 293e 1b04 863d
00000010: 180d 88bd 89d6 41be a5a8 cabe f5e7 a4bc
00000020: 8db5 183d 7dc5 2e3e 640c 703e bd7d 8bbe
00000030: 8cfb ce3e bbbf 30bd c89f 0e3e a93c 333d
00000040: 5958 833d ad56 5e3e 65e6 02be f8ce 8ebe
00000050: ae7d 663e 5af8 883e d368 293e 859c 8dbb
00000060: 2682 923d ef7c 27bd c0bb 503e 5b72 353e
00000070: 7b1b 8dbd ecbd cd3c 19c6 3d3c f3f1 87bd
00000080: 5000 d83d 783e 0dbe 4edb 8e3d 89d1 003e
00000090: 6d99 8fbc dc57 073e 3d51 8c3d 0681 89bc
000000a0: 6da5 a63e f86f 16be b5e6 eabd b80d e5bd
000000b0: 7103 71be 4e30 87be 0a48 133f 3e8c 083f
000000c0: 4fa4 2d3d e278 be3c 925f 0dbe 1926 d9be
000000d0: 1cd1 03be 5c79 8dbe 3471 fbbd faae dfbe
000000e0: 65f6 773e 4a4d 8bbe abb9 4cbe 56ee 59bd
000000f0: 540c 08bd 717b bcbd d973 c2bc 598f 57bc
00000100: ddcc 253e 599c 863d 82ca 663d 6954 1a3d
00000110: f6dc c8bc 525b 293e abab 91bc 71b8 023e
00000120: 87f2 373e 53e5 263e b7e7 b53d 94dc 193d
00000130: 04be 893d 621e 97bd 0ea8 b03d 4af2 563d
00000140: 572f 52be 4cff 66be 9789 163d b081 54be
00000150: 0b21 673d 8925 21be d70e 993e 7711 793e
00000160: d2bb f63d 3d00 33be b0ce 823e 25cd e83d
00000170: 30a7 803d 3f0f 09be 8b21 5b3d 4677 653d
00000180: bfab 06bd d517 553c d9e4 243e f0d7 87ba
00000190: 3459 043e 95de 413e 7941 603c e1c2 66bd
000001a0: 3eb2 36be 6502 3e3e 7395 ac3d 0834 613e
000001b0: 21dd a53e 2d46 e63d 2649 e1bc 86e2 70bd
000001c0: 9bfa d63b 5222 523e 0184 4c3e ae7f f53c
000001d0: 90fe a43d f53b 453c 528d fa3d c44c 6a3d
000001e0: 2bda 00bd 7fc0 2e3e 2cef 833d 0cdd c33d
000001f0: d34f 393d f24e 2dbd 5fc8 653e 9c0e 243e
00000200: 99de 683e 28a6 5e3e afdc 3dbd 05de 10bf
00000210: e203 b5be 63d7 9e3e a952 a0be 9c0b bdbe
00000220: 76dd a2bd 8e8e 343e 3b59 e8bd ad3d d9bd
00000230: 3e03 cbbe 31f3 7e3e ea11 d63d 29b1 ce3d
00000240: 6454 d7bd d311 9abd ca0b 93bc 4d02 703c
00000250: c986 733d d7c0 40be b531 d53d c63b fd3d
00000260: 23f1 363d c87c 923e 80d2 ac3e 078f cdbb
00000270: c862 98be 88f9 833b 6e29 233e d304 cb3d
00000280: 9b01 2a3d ffa2 273d 9723 8e3d 3cd5 993e
00000290: 8b4c 183e 3d26 9f3d 7e87 d13d 2969 c13d
000002a0: cad3 563e e8d1 773d 0694 113e dc44 6b3e
000002b0: ddc0 1abf b023 07bf 5896 63be b4cd cfbe
000002c0: 2f0f 35be ced2 07be 0b1b b0be df1a aabe
000002d0: 72eb 86be 5565 16bf 1b11 283e de06 b83c
000002e0: 2a52 2f3e 5fd7 223e 4908 05be 0276 e2bd
000002f0: aefe 0f3e 3ecf 5b3e 722c 473e 925f 2c3e
00000300: 2e6e cb3d b5e4 7abd 70be ab3c 13da 8f3d
00000310: cf1a 23be f0ca c83d d6de 143e 22af a03d
00000320: be35 833d ed26 ed3d 3ee0 04bd f02e 043e
00000330: 82d4 cf3d 7626 9dbc 0ad7 b33c c520 313e
00000340: 3ad4 17bd 0850 903c b2b0 3f3c 0f44 4fbe
00000350: aaf4 063e 90ae dabd b942 64be bdc5 a3bd
00000360: 0fb0 863e 9a86 dbbe cc87 57be 8099 07bc
00000370: fbe8 01bc acd6 b73e b9e8 a1bd 96b6 9bbe
00000380: 447f a73e f05f 4e3d 463e 3bbd 7221 3bbb
00000390: c03d 853c 5d8a de3d effb 9c3c cda1 d43d
000003a0: 48fe b2bd 6da8 5abb e187 26bc f3a7 ee3c
000003b0: 6001 babb 6069 283e 2d39 2cbe 7f86 59be
000003c0: 0e1f d53c da2f dabd e281 3ebe ceaa 48be
000003d0: 1c80 163c 9b91 083e a768 a13d 6b35 5abe
000003e0: d7b5 5cbe fdcf ce3c 1805 4abd 1d30 00bf
000003f0: c03f 043e 1d45 31be c0da 91bc 6f25 763e
-0.009623307 0.006307486 0.16536824 0.06543752 -0.066431224 -0.18929495 -0.3958179 -0.020130137
0.037282515 0.17067523 0.23442227 -0.27244368 0.4042629 -0.0431516 0.13928139 0.043759022
0.06413335 0.21712752 -0.12783201 -0.2789228 0.2250888 0.26751977 0.16543894 -0.004321637
0.0715373 -0.04089063 0.20384121 0.17719404 -0.06890007 0.025114976 0.011582875 -0.06637945
0.105469346 -0.13793361 0.06975423 0.12579931 -0.017529214 0.1321711 0.068514325 -0.016785156
0.32548085 -0.1469115 -0.11469785 -0.11184257 -0.23536469 -0.2640404 0.575318 0.5333899
0.042393025 0.023251 -0.13805988 -0.4241188 -0.12872738 -0.27631652 -0.12277451 -0.43688184
0.24215086 -0.27207404 -0.19992702 -0.05320581 -0.033214882 -0.09203232 -0.023736881 -0.013156735
0.1619143 0.0657279 0.05634547 0.037678156 -0.024519425 0.16538742 -0.017782053 0.12765671
0.1796361 0.16298418 0.08882087 0.037563875 0.06725696 -0.07378842 0.08625804 0.05247716
-0.20525871 -0.22558326 0.03675231 -0.20752597 0.056427997 -0.15736975 0.29894134 0.24323069
0.12047543 -0.1748056 0.25548315 0.11367253 0.062818885 -0.13384722 0.053498786 0.05602195
-0.032878634 0.01300617 0.16102923 -0.0010364037 0.12924653 0.18932565 0.013687485 -0.056338195
-0.17841431 0.18555601 0.08426943 0.21992505 0.3239527 0.11243854 -0.0275007 -0.05880978
0.006560636 0.20520905 0.1997223 0.029968109 0.080563664 0.012038221 0.12233986 0.057202116
-0.03145806 0.17065619 0.06442103 0.09563646 0.045242142 -0.042311616 0.22439717 0.16021198
0.22741164 0.21743071 -0.04635304 -0.56588775 -0.35354525 0.31023702 -0.31313065 -0.3692292
-0.079523966 0.17632505 -0.11345144 -0.10607467 -0.3965091 0.24897458 0.104526356 0.10092384
-0.10514143 -0.07522931 -0.017949957 0.014648986 0.059454713 -0.18823563 0.104098715 0.123649165
0.04466356 0.28610826 0.3375435 -0.0062731537 -0.29762864 0.004027549 0.15933773 0.099130295
0.041505437 0.04092693 0.06940382 0.30045497 0.14872949 0.07770965 0.10230921 0.09443886
0.20979229 0.060502917 0.14216623 0.22975487 -0.60450536 -0.5278883 -0.2222532 -0.40586627
-0.17681573 -0.1326401 -0.34395632 -0.33223626 -0.26351506 -0.5874837 0.16412775 0.022464212
0.17121187 0.1590247 -0.12991442 -0.110576645 0.14061996 0.21465775 0.19450548 0.16833332
0.099331245 -0.06125327 0.020964831 0.07024016 -0.15928195 0.09804332 0.1453813 0.07845904
0.06406735 0.1157969 -0.032440417 0.1290853 0.101479545 -0.019183379 0.021953125 0.17297657
-0.03706763 0.017616287 0.011699842 -0.20240806 0.1317927 -0.106778264 -0.22291078 -0.079967
0.26306197 -0.4287613 -0.21047896 -0.008276343 -0.007929082 0.3590597 -0.079057164 -0.3041274
0.32714283 0.050384462 -0.045713685 -0.002855387 0.016264796 0.108662345 0.0191631 0.103824235
-0.087399065 -0.003336455 -0.010164232 0.029132819 -0.0056764334 0.16446447 -0.16818686 -0.21242712
0.026015785 -0.10653658 -0.18604234 -0.19596407 0.009185817 0.13336794 0.07881289 -0.2130944
-0.21553741 0.02524566 -0.049321264 -0.50073415 0.12914944 -0.17311521 -0.017804503 0.24037717

rits_f.rnn_cell.weight_hh f4 [256, 64]
00000000: d7c6 2cbd 38ce 20be a98d 233e ecdd 893d
00000010: db26 7fbe 454e b4bd 4f17 073e 2eb9 3c3f
00000020: 3beb 96be 5ada 16bb 9d3d 31be 3afc 7fbb
00000030: 240c 85be bdb7 a7be 3d27 b3bd 775d 453e
00000040: 13f8 493e 486f e9bd 3a1a b1bd e6fd 023e
00000050: 5e66 d13d 36c5 d23c 6a25 0c3e 71f1 883e
00000060: 8805 ecbd 0c3c 3d3d 8ce3 e1bd 688e 34bf
00000070: 24bc afbd 75b8 c83c f0b5 f13d 882a e8bd
00000080: 1db2 25be 2bd2 313e 5ea4 013f 5fd7 64bc
00000090: b029 60be d7d7 0c3d 94ee b83d e231 133d
000000a0: 031a 2b3d 1681 4fbd 244f 77be 4dfc 123d
000000b0: f3c5 67be 1d32 7e3e 3fb4 bb3e c8b0 7fbe
000000c0: 583e abbd 933d da3d 69f0 2e3f ace0 213e
000000d0: 4480 783c 8ea1 173e 24ed 893e fa32 213f
000000e0: 5dfd 3ebe 5b6c 3abe 6e21 7f3d b9a5 053e
000000f0: 9dad 32bd f6ad 37be 1f43 c83e f9a1 aa3e
00000100: 6789 d4bd 885f 9f3d 5d6b 15be 62d6 173e
00000110: 21e8 76be 0d56 d8be b17e 8abd 7443 223d
00000120: 3cf2 55bd 2ddd 39be 0df8 fdbd 75b4 a8be
00000130: 4893 c13e 8db9 f03c 66ea 61bd d00e 943c
00000140: dbb3 bdbe 4a41 01bd de7c 28be 4962 403e
00000150: b71a 383e faf2 f5be 35ff ffbd 3145 28be
00000160: a68d 2fbd 953e 9abe 9cfe b03e 50e8 483e
00000170: 3bf0 813c a130 a73e 449b f53c 2b06 153e
00000180: 5a82 0b3d 143b 303e 5962 4cbe 0010 0c3d
00000190: 93a5 23be a555 46bd 0b2e 403d c470 32bd
000001a0: e750 a73e e1ac 9abe 8e53 1c3d ddb1 06bc
000001b0: 5782 7bbe c851 e2bc d45a c1be 15ed b93d
000001c0: e4af debd a30f 55bd bba5 f9be dd78 983d
000001d0: 98fc 683e 3f4b 4e3f 0894 5cbe ff69 023e
000001e0: 6aba eebe 2c3e 8fbe 6ad5 95bd e305 7cbe
000001f0: 6794 08be 0ef0 513f 2e4d da3e a142 85be
00000200: bb6a 8f3e 2cfa 7fbd 9525 0a3e 319b a7be
00000210: 167a 0dbe e3f7 973c 6168 27be 718c a4be
00000220: 7051 9eba 7085 aabc 66db 41be 1e38 413e
00000230: 8d96 babd fec5 c7be 8497 a1bd 94ba 02bd
00000240: a09b 3fbf b6bf 8abb a40c 563e c090 91be
00000250: 3e55 b53e ed89 37be e3a0 11be ed82 9cbe
00000260: 7808 bebd b804 b13c 509e c1bc 1015 6f3d
00000270: be5d 043f 6390 2ebe c7bc 813b 4184 173e
00000280: 4f9f ca3d 9bf0 c1bc 952f 263e 28e9 9d3e
00000290: 0eed bfbd 65d4 96bd 4696 423e 4ceb babe
000002a0: 27d8 b33e 32b0 c9bd d8b3 48bd 7737 9a3e
000002b0: 545d 0b3d 8453 68be 3c89 793e 2d62 a13e
000002c0: ea7e c2be 88a0 2abe ea83 35bf cb4d dabe
000002d0: 4386 ac3e 205c d73e 851f 54be d106 363e
000002e0: ce26 8fbe c404 a9bd f2ef 843e 5198 bfbe
000002f0: eb23 c2be 6634 a7bd 6d7f ea3d 8823 12bf
00000300: 905c 92be 8ee1 0f3f c3ae 40be 56d6 6abd
00000310: 21bb 413e 3320 243c e4df c43e ff76 bcbd
00000320: ea78 913e 3b1d a0be e79a 0a3e d71d 6fbf
00000330: 061c 1dbf 3363 27bf 922f ce3c 8ccc 8f3e
00000340: 2e8c 973e bb4f cbbb a6fa 3cbe 36dd 90be
00000350: b764 053e 10b2 2abf f660 693d 8c3b f43d
00000360: 6b17 8b3d 073b 0cbf 0582 6a3e dc39 75be
00000370: f80d dcbe 86e9 623e 6dac 58be fd9b 9d3c
00000380: 042d df3d f688 333e aec8 493e cef0 87be
00000390: e6ed ddbe bfa0 c93e f22f d9be 74b0 943e
000003a0: efa9 1c3f e8b5 173f 2caf 603e 77bf 473e
000003b0: 187c 05bd a7d0 b1bc b42a 0abe a6b2 f83e
000003c0: 0a3f bfbe 94ae 39bc e297 cd3d ba17 b8bd
000003d0: 1710 243f 8093 47be 8119 063f 3397 a13e
000003e0: 3f8c 23be 5422 923e 775e fe3d 55d6 f3bb
000003f0: f6a5 183f 3be9 373f 5e47 84be d3b8 17bf
-0.042181816 -0.15703666 0.15972008 0.06731781 -0.24917166 -0.08803991 0.13192485 0.7372006
-0.29476342 -0.0023018331 -0.1730866 -0.003906025 -0.25985825 -0.3275737 -0.087477185 0.19273935
0.19723539 -0.11398178 -0.086475804 0.12792167 0.10224603 0.025728803 0.13686147 0.26746705
-0.115244925 0.046199843 -0.11029729 -0.70529795 -0.08580807 0.024502018 0.1180228 -0.11336237
-0.16181226 0.17365329 0.5064143 -0.013967364 -0.21890903 0.03438553 0.0902988 0.035936244
0.041772854 -0.050660215 -0.24151284 0.035885144 -0.22634105 0.24823804 0.36660954 -0.2496978
-0.083615005 0.106562756 0.68335587 0.15808362 0.0151673 0.14807722 0.26938736 0.6296841
-0.18651338 -0.18205397 0.06228774 0.130515 -0.0436226 -0.17937455 0.3911371 0.333267
-0.1037777 0.07781893 -0.14591737 0.14827874 -0.24111988 -0.42253152 -0.06762446 0.03961511
-0.052232966 -0.18150778 -0.124008276 -0.32950178 0.3780768 0.029385353 -0.05515518 0.01807347
-0.3705128 -0.031556405 -0.16453883 0.18787493 0.17978941 -0.4803694 -0.12499849 -0.16432644
-0.042859696 -0.3012587 0.34569252 0.1961987 0.015861621 0.32654288 0.029981263 0.14553134
0.03405986 0.17210037 -0.19959392 0.034194946 -0.1598113 -0.04842152 0.04691891 -0.043564573
0.3267891 -0.3021002 0.03816562 -0.008221117 -0.2456144 -0.027626887 -0.3776461 0.09078423
-0.10873392 -0.052016865 -0.48759255 0.07444928 0.22752607 0.80583566 -0.21540844 0.12735747
-0.46626598 -0.2797712 -0.07316096 -0.2461162 -0.13337861 0.8200692 0.42637008 -0.26027396
0.28011116 -0.062494442 0.13490899 -0.3273559 -0.13816103 0.018550819 -0.16348411 -0.32138398
-0.0012078714 -0.020815581 -0.1893135 0.18869063 -0.091107465 -0.39018244 -0.078902274 -0.031916216
-0.7484684 -0.0042342795 0.2090326 -0.28430748 0.35416597 -0.17923708 -0.1422153 -0.30568638
-0.09278959 0.021608695 -0.02363506 0.058369696 0.5170554 -0.17047267 0.0039592716 0.14796545
0.09893667 -0.0236743 0.16229089 0.30841947 -0.093713865 -0.0736473 0.19002637 -0.36507642
0.3512585 -0.0984806 -0.048999637 0.3012044 0.03402455 -0.22688109 0.24368757 0.31520215
-0.37987453 -0.166628 -0.7090441 -0.42637476 0.33696184 0.42062473 -0.20715149 0.17776038
-0.27959293 -0.08252862 0.25964314 -0.37420896 -0.37918028 -0.08164291 0.11450086 -0.57085466
-0.28586245 0.56203544 -0.18816666 -0.057333313 0.1891904 0.0100174425 0.38452065 -0.09202384
0.28412563 -0.312723 0.13535653 -0.93404907 -0.61370885 -0.6538574 0.025169168 0.28085744
0.29599136 -0.006204573 -0.1845499 -0.2829377 0.13026701 -0.6667795 0.056977235 0.1192542
0.06791576 -0.5477757 0.22901161 -0.23947853 -0.42979407 0.22159395 -0.21159525 0.01923942
0.10897258 0.17532715 0.1970546 -0.26550907 -0.43345565 0.39380452 -0.42419392 0.29040873
0.611968 0.5926194 0.21941823 0.19506632 -0.03258905 -0.021705939 -0.13492852 0.48573798
-0.37352782 -0.011333127 0.10038735 -0.089889005 0.6408705 -0.1948986 0.52382666 0.31560668
-0.15971468 0.28541815 0.124203615 -0.007441322 0.59628236 0.71840256 -0.258357 -0.59266394

rits_f.rnn_cell.bias_ih f4 [256]
00000000: d0b6 c03d 1492 d53d 98aa 49bc d6f0 58bd
00000010: 93c3 be3d a13f b0bd 9d06 ed3d ea2c 103d
00000020: 4199 303c f43c 283d 3291 c53c 459d 5e3e
00000030: 6703 983d 4750 bcbc d837 583e 723d a4ba
00000040: e2e2 183e 8486 cebd 9dc0 153e 79bf e43b
00000050: 888f b33d 2537 9c3d 84ea c73d 72ef 0dbd
00000060: 9e48 073e d801 0a3e 95eb 683d 5215 123e
00000070: fdec 533d 7dc2 e83c 59ff 423e 4f2e 73bc
00000080: dca9 fb3d fa58 3b3e 4fd6 9eb9 c459 b23d
00000090: 799a ffbb dd91 58bd 09c8 383d b855 86bc
000000a0: ab32 133d 3b10 093e 5401 f83c 9e87 a53d
000000b0: ca3c 413e 328d ad3d dc9a 8e3e 352a 623d
000000c0: e8c8 553d 0923 343e 79d9 793e e353 b03d
000000d0: 0772 443d 8bf8 6b3d eeb9 283c 3a4c 52bd
000000e0: c495 3a3e cc92 f33c 56cd ec3d 4d16 aa3d
000000f0: 2003 8c3d 6839 b83d 632f 2f3e 3b26 083e
00000100: 87fb 023e 06e7 fdba c203 343d 7272 a23b
00000110: bfe4 0d3e 687b c63d a557 0c3e d852 913d
00000120: cd34 84bd 30e2 59bd 66b1 e23d 9c6e 3a3e
00000130: 2675 1fbd 9fa9 ca3d 608a e0bd 601e 483d
00000140: 0f85 cbbc b43c 22bd 9d83 843d 8a53 163d
00000150: cb13 693e a436 923c 285a 2f3d cdd6 1bbc
00000160: f1a6 10bc d9eb 8e3d e4be a63d 20ea a43d
00000170: b3bf b9bc 1e28 ec3d 6433 853d 7e62 753d
00000180: 0fc2 223e f1c7 31bd f2bf ee3d e635 e63c
00000190: 71a9 c23c f769 e73c 7a67 113e 32d4 bb3d
000001a0: 6c58 9e3d 3e2d e93d cbdb 263e 8d8e 94bc
000001b0: 6f9b 3c3d b502 eb3d 9945 5f3d cb6d 0a3d
000001c0: d1b3 ef3d 58af a6bc 8716 1c3b e123 123e
000001d0: e03d 343d 6a7b e8bc 57fc d43d efa7 3ebe
000001e0: 880e 683d ac53 2c3e b360 053c f771 863d
000001f0: 08b5 063e 6cfa 05be 0428 d43d 52a5 34bd
00000200: 1e79 1cbe c207 d6bb 19b3 82bb cd08 65bd
00000210: fc00 fcbd 39dd 73bd 578f 75bd 2eab 31bd
00000220: 2cbc 21bd 20cc 5bbd 587e d83d cab5 91bd
00000230: 4e13 173e aa0b 67bd fb20 78bc d1ad 213e
00000240: eb16 393c ce4e c03d d7fe cc3d 0291 fa3d
00000250: 70e6 213e 7aa5 16be 281e 103d f479 903d
00000260: 4eb7 eb3d dbfb c9bd c053 8abd 9936 cabc
00000270: 7e5d 413b ab80 a33d ded7 763d 638f 753d
00000280: 9dad 843e 8535 113d 0a73 a6bc 4e7c db3c
00000290: d61e 393d d84e b8bd 1eb1 df3d 0e09 17be
000002a0: 2107 e2bd 2574 7c3d 7a61 b23d 1511 b9bd
000002b0: 3dbb 1c3d 9956 4c3d 5ed0 e3bd 17b4 fabd
000002c0: f158 42bd 4b62 3f3d accd 163b ecbf c8bd
000002d0: 8dd5 e83d bb7d bbbd afbd c33b 8fdc 03bd
000002e0: 5769 f23c e448 05be 6b1c b83d d388 a83c
000002f0: fc84 4c3d 85e9 1abd 8ec3 0a3d a951 efbd
00000300: f671 573e d71e 923d 67c5 283d 5a52 f03d
00000310: 452e 483e 998f 373e a083 383d 4ef0 043e
00000320: b1b5 0d3e 6b1e 0d3e b456 463d 0dd0 1e3e
00000330: ca52 073e 9b0b 523c 3b83 493e d54e 963d
00000340: 97aa 063c 0400 6ebc 96cd ae3e f1e0 cdbd
00000350: b3b9 bcbc 794c 61bd 0786 c73d 8dc4 1ebd
00000360: 177d 56bd b1cd 253d e175 0a3e cc38 d23d
00000370: 7a2b a63d 69ea 603e d8bc 84bd 8d17 5c3e
00000380: 1187 4e3d 34b4 893e 5562 9a3d e5d4 423e
00000390: 8727 9a3d c70a fb3c d1f7 ef3d d776 2d3e
000003a0: 4bc8 0c3d 8cf9 723d 6e04 d13d e528 213e
000003b0: 99f5 453e 790c 6b3d 19c3 e23d e55c 423e
000003c0: b238 d33d c3f2 973e f3bd 943d 468b 833e
000003d0: 179c 103e 08ef 373e 4e14 9d3e 5750 003e
000003e0: 7747 1e3d e662 353e 078b 853d 04aa bb3d
000003f0: 9a7f 6c3e 39c7 acbd f618 263d 5c59 563d
0.09409869 0.10428253 -0.012308739 -0.052964054 0.093146466 -0.08605886 0.11573527 0.035199083
0.010778726 0.041073754 0.024117086 0.21739681 0.07422524 -0.022987498 0.21115053 -0.0012530519
0.14930299 -0.100842506 0.14624257 0.006980833 0.08767611 0.076277055 0.09761527 -0.03465218
0.13211295 0.13477266 0.056865294 0.14265946 0.05173968 0.028413052 0.1904272 -0.014842584
0.122882575 0.1829566 -0.0003029578 0.08708528 -0.007800397 -0.05287348 0.045112643 -0.016398296
0.035936993 0.13385098 0.03027407 0.080825076 0.18870845 0.084741965 0.27852523 0.055216033
0.052193552 0.1759149 0.24399365 0.0860975 0.047960307 0.057610076 0.010298235 -0.051342227
0.18221194 0.029733084 0.11562602 0.08305035 0.068365335 0.089953244 0.1710792 0.13295834
0.12791263 -0.0019371219 0.043948896 0.0049574906 0.13856791 0.096915066 0.13705309 0.07095879
-0.064553834 -0.053194225 0.11068992 0.18206257 -0.03893008 0.09895634 -0.10963893 0.048857093
-0.02484372 -0.039608672 0.06470416 0.036700763 0.22761457 0.01784832 0.04281059 -0.009511662
-0.008828864 0.06978578 0.08141878 0.08052468 -0.022674417 0.11531089 0.065039426 0.059908383
0.1589434 -0.04340357 0.116577044 0.028101873 0.023762437 0.02824877 0.1419963 0.091713324
0.07731709 0.113855824 0.16294782 -0.01813438 0.04604667 0.11475126 0.054509733 0.033796113
0.11704219 -0.020347282 0.0023817138 0.14271499 0.04400432 -0.02837916 0.103996925 -0.18618749
0.056654483 0.16828793 0.008140731 0.06564706 0.13154995 -0.1308381 0.10359195 -0.044102974
-0.15280578 -0.0065316865 -0.0039886353 -0.055916596 -0.12304875 -0.059537146 -0.059951153 -0.04337614
-0.039486095 -0.053661466 0.10570973 -0.07114752 0.14753458 -0.056407608 -0.015144582 0.15788962
0.011296968 0.09390031 0.10009544 0.12234689 0.15810561 -0.14711562 0.03518501 0.07054511
0.11509572 -0.09862491 -0.06754255 -0.024684237 0.0029505189 0.07983526 0.06026446 0.059951197
0.25913706 0.03545143 -0.020318527 0.026792672 0.045195423 -0.08999413 0.10922454 -0.14749548
-0.11036516 0.0616342 0.087099984 -0.09036461 0.0382645 0.049887273 -0.11123727 -0.12241381
-0.047448102 0.0467246 0.0023010774 -0.09802231 0.113688566 -0.091548406 0.00597354 -0.032192763
0.029591246 -0.13016087 0.08989795 0.020573055 0.04993151 -0.037820358 0.0338779 -0.11685497
0.21039566 0.071347885 0.041203883 0.11734457 0.195489 0.17925872 0.045047402 0.12982294
0.13838841 0.13781135 0.04842253 0.15509053 0.13215175 0.01282015 0.19678967 0.07339255
0.008219383 -0.014526371 0.34141225 -0.1005267 -0.023037767 -0.05500457 0.097423606 -0.038761664
-0.05236539 0.040479366 0.1352153 0.102647394 0.08113761 0.2196442 -0.064813316 0.21493359
0.050421778 0.26895297 0.075382866 0.19026525 0.075270705 0.030644787 0.11717189 0.16939865
0.0343707 0.059320018 0.10205923 0.15738256 0.1933197 0.05738494 0.11072368 0.18980749
0.10313548 0.296774 0.072627924 0.25692195 0.14122044 0.17962277 0.30679554 0.12530647
0.038642373 0.17713508 0.06520658 0.09163287 0.23095551 -0.08436436 0.04055115 0.052331313

rits_f.rnn_cell.bias_hh f4 [256]
00000000: 83e6 783d 5e4f 5c3d 46b4 40bd 145b 263e
00000010: d4c2 623e 3e2a 163d e315 2a3e c2aa 3d3e
00000020: 8510 063e 7fc2 1a3e c253 c23d 4dd9 863c
00000030: 4e1d 523e 2448 343d c17b af3d a328 1e3e
00000040: 6cfd 153e e8ac 4b3c a267 4e3d 3fcc bc3d
00000050: abc6 19bd fb36 1c3d 34f0 3dbd c07c 243d
00000060: 25a4 5bbd 1ae7 01bd c906 3b3e 6c9c b2bd
00000070: 33de 2f3d 64df 3a3e 4b17 213e e1a1 323e
00000080: c05c 563e ac2d 783e f1d2 1a3e 515b 2dbd
00000090: 9a37 f7ba e2d9 fabc 3500 bf3d af10 bdbc
000000a0: b662 46bc 37d4 fb3d 70a8 a63c fb03 1e3e
000000b0: 83f7 873e 9dc8 09bd 2334 0c3e 0987 173e
000000c0: 0281 b83d 20ce 6b3d da45 aa3d c096 033e
000000d0: f381 393d 7406 573e cb55 3d3e 11f4 ddbd
000000e0: a8ce 713e d97b 073e 657c 083d d1e4 223e
000000f0: b6ec 2cbc 0e9d b73d afaa 373e 43a9 0a3e
00000100: 3771 b53b 7bb5 95bd 8442 833d f9a8 26bb
00000110: 2149 383e 615a 293e c2c3 5ebd 5015 f63b
00000120: 6b3b e43d 404d 593d ac03 023e 5d21 0cbb
00000130: f55a cdbd f17c b63d 5cfe cebd ad68 d33d
00000140: 21fb 0b3e 1c3c 33bd 8fae 193e 0f99 95ba
00000150: fb91 4d3e 76a4 d3bd 3cce 393d e555 0d3e
00000160: acb4 17bb 7fa8 343e aa0a 043e 4f8e 79bd
00000170: 57ab bcbd 0df5 9a3b 2aa6 cc3c 92b0 923b
00000180: 83be 323e ab2e 3a3d 535f 203c 4852 2b3e
00000190: 3633 a93d 5224 093e e4a1 51bd 9c85 213d
000001a0: caef 273d ead9 87bd d593 293e 5235 4d3e
000001b0: af60 413d 7fac aa3d af83 363e d639 0b3e
000001c0: 2402 46bd 0840 f4bc c55d 343c 90fa 583e
000001d0: b15d c13d f337 63bd 458c 6c3e 3463 57bd
000001e0: b24d 5abd 6a71 2e3e 5bb6 163e d356 b03b
000001f0: 957f 61bc a84e 1abe 674a 67bd f584 efbc
00000200: f1e6 793d aa48 dd3a fcee 8abd af3f 553c
00000210: 8ff8 56bd 73e4 053d 17f0 bfbd d2e2 5dbd
00000220: 862e 10be 6104 8dbc 7e58 9c3d ab4b fcbd
00000230: faa7 893d 4633 11bd 4f3b bf3d 08d8 933d
00000240: d9c8 a4bd 5a6a c3bd ddea 51bd 824a 84bd
00000250: 06b8 043d 6659 67bb 5982 c23d 1790 003e
00000260: 49a4 453c 07f0 e3bd f10e 93bc 03f8 b63c
00000270: 41e8 3b3e 8200 b7bc c33d a1bd 853b 83bc
00000280: d120 5d3e 0a15 f63d 1058 ee3d 71b9 deba
00000290: c230 193e 4e1d 173e b1fc 843c 394f 233c
000002a0: 4706 a03d 9314 233e 620f 473d 7048 bd3c
000002b0: fdb5 babc 9a3b 90bd d12e 9b3c fd6f a3bd
000002c0: 136d f53d 0a69 b03d 92ff a33c 3459 b6bd
000002d0: 6bf7 48bd 1f3b c43d e3b6 cd3c 5c02 10bd
000002e0: 08e6 1abe 000f 723d cb2d cdbd 947e 7bbb
000002f0: 9772 6ebc 778c 423d 3a02 8a3d a354 0fbe
00000300: f954 333d a0e7 a13b ed07 143d fe29 303e
00000310: c0af a43d 0343 a93d ef07 1e3e 0eaa b53e
00000320: fcc7 2c3e fc1a 363e e915 3ebc 77ab 213e
00000330: 0cf5 e23d 00dd 1d3d 1975 693d 029e e2bb
00000340: 0bc6 65bd 3647 743d 39fc 143e ece1 79bd
00000350: d1f4 e9bc 852b 31be cfba 233e b76b 2c3e
00000360: 95a9 bcbd 8da8 313e c8fa 8c3d d89b 333d
00000370: 1976 1a3d a30c 9b3d 7ccc 883d 41cb 963d
00000380: cc95 123e 8d54 9c3d c5df f83c 3767 823e
00000390: 8320 0ebe 8e06 2cbb 973b d9bd dce2 233d
000003a0: ae3a b7bc 9523 153e dbbd a33c 6ff6 a03e
000003b0: f533 0c3e 6395 3b3e dca0 633e c950 1f3a
000003c0: d227 a03d 70f7 273e ea30 173d 82c8 343e
000003d0: f487 313c e033 9e3d 4ef7 a93e a4c8 063e
000003e0: b552 4b3e ae32 203e 95a4 f73d 674e 583e
000003f0: d4ef ca3d c002 61bb 8634 633e 3720 743c
0.060766708 0.053786628 -0.047046922 0.16245681 0.22144634 0.03666138 0.16609912 0.1852217
0.13092239 0.15113257 0.09488632 0.016461039 0.20518991 0.04401411 0.08568526 0.15445189
0.14647454 0.012431361 0.0503918 0.09218644 -0.03754298 0.03813837 -0.046371654 0.040158033
-0.053623337 -0.031714536 0.18264307 -0.08721241 0.042936515 0.1824928 0.15731542 0.17444564
0.20933819 0.24236172 0.1511953 -0.042323414 -0.0018861175 -0.030621473 0.09326211 -0.023079244
-0.012108495 0.12296336 0.02034399 0.15431206 0.26556024 -0.033638585 0.13691764 0.14797606
0.09008981 0.057569623 0.083141044 0.12850475 0.045289945 0.20998555 0.18489759 -0.108375676
0.2361399 0.13230838 0.033321757 0.15907599 -0.010554483 0.08965503 0.17936204 0.1354113
0.005537178 -0.07310005 0.06409171 -0.0025430305 0.17996646 0.16538383 -0.054385908 0.007509865
0.111441456 0.053052187 0.12696713 -0.002138219 -0.10027114 0.089105494 -0.10107109 0.103227
0.13670017 -0.043758497 0.15007995 -0.0011413413 0.20075218 -0.10334103 0.045362696 0.13802297
-0.002314846 0.17642401 0.12894693 -0.06092673 -0.09212368 0.0047289194 0.024981577 0.004476615
0.17455487 0.045454662 0.009788352 0.16730607 0.08261721 0.13392761 -0.05117978 0.03943406
0.041000165 -0.06633361 0.165603 0.20039871 0.047211345 0.08333682 0.17823671 0.13596281
-0.048341885 -0.029815689 0.0110086845 0.21189332 0.09441698 -0.05547328 0.23100384 -0.05258484
-0.053296752 0.17035452 0.14718 0.005381444 -0.013763328 -0.15069067 -0.05646744 -0.029238204
0.06101126 0.0016882617 -0.06783864 0.013015672 -0.052483138 0.03268857 -0.093719654 -0.05417139
-0.14080247 -0.017214002 0.07634066 -0.1231912 0.06721492 -0.03544929 0.09337484 0.07218939
-0.08046121 -0.09541769 -0.051249374 -0.06459524 0.03240206 -0.0035301088 0.09497518 0.12554966
0.012063094 -0.11129766 -0.01795146 0.022335058 0.18350317 -0.02233911 -0.07873108 -0.016019592
0.2159455 0.12015732 0.1163789 -0.0016992522 0.14960006 0.14757273 0.016233774 0.009967619
0.07813697 0.15925817 0.048598655 0.02310583 -0.022791857 -0.07042618 0.018943222 -0.079803444
0.11983695 0.086137846 0.020019326 -0.08903733 -0.04906408 0.09581589 0.025111621 -0.0351585
-0.15126812 0.059096336 -0.100185 -0.0038375007 -0.014553688 0.04749724 0.06738706 -0.1399713
0.043782208 0.004940942 0.03614037 0.17203519 0.08041334 0.082647346 0.15432714 0.35481304
0.16873163 0.17783731 -0.0116019035 0.15788065 0.11081895 0.03854084 0.05699644 -0.0069158087
-0.05609707 0.059638225 0.1454934 -0.06100647 -0.02855912 -0.17301758 0.1598923 0.16837965
-0.09212033 0.17349453 0.0688377 0.043849796 0.037710283 0.0757077 0.06679627 0.07362986
0.14314955 0.07633314 0.03038014 0.25469372 -0.1387959 -0.0026249024 -0.10607069 0.04001127
-0.022366848 0.14564355 0.019987991 0.31438014 0.13691695 0.18318705 0.22229332 0.00060774066
0.07820095 0.16402984 0.036911882 0.17654613 0.010835636 0.07724738 0.3319649 0.13162476
0.19855769 0.15644333 0.120919384 0.21123658 0.09909025 -0.0034333915 0.22188005 0.014900259

rits_f.temp_decay_h.W f4 [64, 21]
00000000: e012 9bbd c631 91bd 7be3 34bd 2938 d2bd
00000010: 0d4d 923d d58a b2bd e271 08bd e91d aabd
00000020: c27e 02be d974 29bd 7925 d13c 6a91 a0bd
00000030: 398b 8a3c 0fa5 6ebd 5621 443a 57c1 61bd
00000040: f115 a4bd 1bae d53d b172 203d 6430 963d
00000050: 0a46 c1bd 8c4c 8ebd 309b 23bc 9aa9 1abd
00000060: e03a bfbd caa4 cfbd 30bd d1bd 32c2 bdbd
00000070: caa7 c7bd 3ee5 2a3d b672 c03d 4a03 b03d
00000080: a2e5 58bd 2a15 5d3d 0e2a d5bd a913 c73d
00000090: e236 763d b095 d3bd e2f6 f9bd 0182 c63d
000000a0: 2432 e7bd 769b 78bd fba0 433e fb1d 0fbe
000000b0: 6ea4 ddbd 2875 efbc 69c8 043d 4824 b23d
000000c0: 6765 8e3d e209 3ebe 0d6c 3abe 0836 83bd
000000d0: 6093 72bb baa6 14bd 12c1 8b3d 79f2 c33d
000000e0: aed6 bb3d 0c12 1bbe 1c80 98bd ebc7 253d
000000f0: 84d6 1bbe 0cda d2bd 8814 a1bd 9d8d 1f3d
00000100: 1ab7 86bc d748 c6be bba8 9cbe 07d3 20bf
00000110: f7ba b5be 2b52 35be 9e66 afbe 3483 1e3e
00000120: b86c 03bc e808 93bb 0862 3d3e 2b92 39be
00000130: bf1b bdbd e800 51bc 06fa 00bc 0617 2a3d
00000140: 69d7 ba3d 9deb bc3d ae80 10bf 911a 38ba
00000150: ec57 7f3a 2779 85bd 7535 1cbd 47b6 dcbd
00000160: 35b7 323c e3da d3bd 7855 e2bd 85a1 aebd
00000170: 1213 36bd 42fd 41be 612b 2ebe a419 2dbe
00000180: e420 40bd 366a 65bd 9be3 dd3a b157 843d
00000190: 6648 20bd d1d5 f6bd 9364 40be 9b44 3abe
000001a0: 55ac 913c 3e63 adbc fc18 3d3c c0c3 e43c
000001b0: fff1 40be 0523 fdbd e676 ba3d b420 a13c
000001c0: 7f0e c0bc 84ef 653e 8130 ffbc 631b 283d
000001d0: e668 aebd d858 98bd 1430 c33d 381b 923c
000001e0: 84c6 cd3d 7cef 5e3c b0aa 0d3d fa5b 0abe
000001f0: 7009 1b3e 08f2 9fbd 48a1 a4bb a806 5abe
00000200: 7f4a 563e 1274 be3e 739e 073e d663 26be
00000210: 6160 73bd 8f01 34be 8192 dcbd c3c9 5cbd
00000220: 53d7 36be 9a15 c4bd d675 60be aad3 83be
00000230: 6b16 c53d 71ea 723e 4bda 143e 604c 293e
00000240: 6abc 873c 61bf 80be 506e 29bc 2d07 313d
00000250: 3eac 963c 80d5 eebd 0232 213c 4818 6dbb
00000260: 930e 81bd 44b9 353d c499 423d 7027 2fbd
00000270: 698b 80bd 3a5f 0dbe 9cd3 a43b 7174 4b3d
00000280: 64e6 a0bd 88f4 d1bd 247a bebc 447f 83bb
00000290: 25a0 5dbc bad1 24be 42d2 30bd aaae 253a
000002a0: 6ef0 2a3d 7389 fbbc b2bc 36bd 768a 843d
000002b0: 5db9 d7bc 448b c73c 42eb 05be f146 7ebc
000002c0: 7540 57bc 5d6b 97bd d25c 3c3d 8019 233c
000002d0: b0f2 9fbd dabe 903d 9efc e9bd 2027 933c
000002e0: 42d8 b03d 198a d0bd cbfc 40bd 2aad 433c
000002f0: 5fc7 77bd ab25 c1bd 51a4 13be d783 05be
00000300: 8a7d edbc 39a8 713d b7aa 753d a41f a3bc
00000310: ff35 00be 74c8 07be a1fa 573d c21f 02be
00000320: aa85 c9bc 6015 b2bd 24b4 943d e6b1 9cbd
00000330: 62d2 66bc 82e3 1fbb b1eb 6c3d 62f8 6cbc
00000340: ad84 30be 83f8 dcbd 225b 84be 78e7 dbbe
00000350: 8f9e b4bd 8828 91be 3c79 b1be a06e a8be
00000360: c297 d3be c63d 79be 25fd dcbb 5bc6 75be
00000370: fdbd eebe f5c1 c4be 55e1 cebd d377 98be
00000380: 520e fbbd 54df 503d 4ee4 733d 1378 5e3d
00000390: a7c0 c4be fa48 bebe 0c64 5e3d 1a15 86be
000003a0: bcfe 37be 95ce 60be d0a7 07be 0855 913c
000003b0: a159 6d3d 3bc5 633c eca0 1c3d a5e3 4f3d
000003c0: 3d0f 443d c6ee 4dbe 77be 2a3e ee13 823d
000003d0: 7143 28be 2b3a 113d 633f bbbd 8b52 883d
000003e0: 7e21 0abe b356 01be 7c17 03be ac52 f5bd
000003f0: 6c09 12be 291c 49be 0cf4 3abe 5aee f7bd
-0.075719595 -0.07089572 -0.044162255 -0.10264618 0.071436025 -0.08717886 -0.033311732 -0.08306486
-0.12743667 -0.0413712 0.025530564 -0.078402355 0.01691209 -0.05826288 0.0007481774 -0.055116024
-0.080119975 0.104335986 0.03917188 0.073334485 -0.09437187 -0.06948194 -0.00998573 -0.0377594
-0.093374014 -0.10138853 -0.10241163 -0.092655554 -0.097488 0.04172253 0.093968794 0.08594377
-0.05295337 0.05397526 -0.10408412 0.09720547 0.060110934 -0.10331285 -0.12205292 0.09692765
-0.112888604 -0.060695134 0.19104378 -0.1397628 -0.10822378 -0.02923067 0.03241769 0.08698326
0.06952935 -0.18558457 -0.1820528 -0.0640679 -0.0037014112 -0.036291815 0.068239346 0.09567732
0.09171806 -0.15143603 -0.0744631 0.04047386 -0.1521855 -0.102954954 -0.07865244 0.038953412
-0.016444732 -0.38727447 -0.3059748 -0.62822 -0.35494205 -0.17707126 -0.34257978 0.15479738
-0.008021526 -0.0044871457 0.18494427 -0.18122165 -0.09233808 -0.012756564 -0.00787211 0.041525863
0.091231175 0.09224627 -0.5644635 -0.00070230017 0.00097405794 -0.065172486 -0.038136918 -0.10776954
0.010907938 -0.10344484 -0.11051458 -0.08526901 -0.04445178 -0.18944266 -0.17008735 -0.16904312
-0.046906367 -0.056009494 0.0016928794 0.06462038 -0.039131545 -0.12052501 -0.18788366 -0.18190233
0.01778237 -0.021165486 0.011541601 0.027925372 -0.18842314 -0.12360195 0.09104709 0.019668914
-0.023444412 0.22454649 -0.031151058 0.041041743 -0.085161015 -0.074388206 0.095306545 0.017835245
0.100476295 0.013606902 0.03458661 -0.13511649 0.15140319 -0.07809836 -0.005024109 -0.21291602
0.20926856 0.3719793 0.13244037 -0.16249022 -0.059418086 -0.1757872 -0.10770131 -0.053903352
-0.17855577 -0.09574433 -0.21919951 -0.25747424 0.096234165 0.23722245 0.14536397 0.16533041
0.016569335 -0.2514601 -0.010341242 0.043219734 0.018392678 -0.11661816 0.009838583 -0.0036177803
-0.06301608 0.044366136 0.047509924 -0.04276222 -0.062765904 -0.13805857 0.0050301086 0.049671594
-0.078564435 -0.10251719 -0.0232516 -0.004012974 -0.013526951 -0.1609563 -0.043169267 0.00063202775
0.041733198 -0.03070519 -0.044613548 0.06471722 -0.026333505 0.0243584 -0.13078025 -0.015519843
-0.013137926 -0.07393525 0.045986958 0.00995481 -0.07809961 0.07067652 -0.11425136 0.017962992
0.08634998 -0.1018259 -0.047116082 0.011943141 -0.06049287 -0.09431013 -0.1441815 -0.13038574
-0.028990526 0.05899832 0.05997726 -0.019912548 -0.12520598 -0.1326006 0.052729253 -0.12707427
-0.024599869 -0.08695483 0.072609216 -0.07651119 -0.014088245 -0.002439708 0.05784196 -0.014463516
-0.17238112 -0.10789587 -0.2585078 -0.42950034 -0.08819305 -0.28351235 -0.34662807 -0.328969
-0.4132672 -0.24339971 -0.0067440444 -0.24001448 -0.46629325 -0.38429227 -0.101015724 -0.2977892
-0.12258591 0.050994232 0.0595439 0.05431373 -0.38428232 -0.37165052 0.05429463 -0.26187974
-0.17968267 -0.21953805 -0.13247609 0.017740741 0.057946805 0.013902004 0.038239405 0.050754208
0.047866095 -0.20110616 0.16674219 0.063514575 -0.16431977 0.035455864 -0.091429494 0.06656369
-0.13489339 -0.1263073 -0.12801927 -0.11978659 -0.14261407 -0.19639648 -0.18257159 -0.12106009

rits_f.temp_decay_h.b f4 [64]
00000000: 7ee7 f5bc 781f ea3c 6fc5 0a3e f94e 09bf
00000010: 5d34 28be 187d 913e 58e4 fc3c 15b7 09be
00000020: 54f4 9ebe c5e0 c03c 0844 76be e60a afbe
00000030: 9668 e33c 4442 433d a370 9c3e b82d e7be
00000040: 3dd2 aebc 1c20 1abd 7106 25be 8942 a2bd
00000050: 1b87 a7bd 2ea9 dabd 6239 59bd 916b 7fbe
00000060: 052a afbd 4c35 c83d f36f 62bd 8768 19be
00000070: bbdb 56bd 55b1 d3bd b07e 08be c739 78bd
00000080: bac5 52be 86e1 d0bd 7a48 05be 214a e7bd
00000090: a974 ea39 deec 03be d944 abbd 3fb6 37be
000000a0: cf69 47be 4ed4 dfbd f9a8 a53d e1f2 17bc
000000b0: 1ff1 9bbd 9adf 98bc ea59 ac3b 9481 a7bc
000000c0: 12d4 47bd 2d6c d1bd daa2 e8bd 33bf adbd
000000d0: 41ac 34be 866e 27be aee6 ebbd ec68 20be
000000e0: 8547 103e d1a1 7fbd cf4b f8bd dc9e 583e
000000f0: cc00 56bd 5027 0abc 3b3f ec3d c3c5 e8bd
-0.03001761 0.028579459 0.13551877 -0.5363613 -0.16426225 0.2841575 0.030870602 -0.13448747
-0.31045783 0.023544678 -0.2404939 -0.34188002 0.027759831 0.047670618 0.30554685 -0.45152068
-0.021340484 -0.037628278 -0.16115738 -0.07922847 -0.08180066 -0.106768 -0.05303324 -0.24943377
-0.085529365 0.097757906 -0.055282544 -0.1498128 -0.052455645 -0.10336558 -0.13329577 -0.060601976
-0.20583239 -0.10199265 -0.13015929 -0.11293436 0.00044718877 -0.12883326 -0.08362741 -0.17940615
-0.19473957 -0.10929166 0.080888696 -0.009274215 -0.076143496 -0.018661309 0.005259742 -0.02044753
-0.04878623 -0.10225711 -0.113591865 -0.08483734 -0.17643835 -0.16350755 -0.11518608 -0.15665025
0.14089783 -0.06241018 -0.12123834 0.2115435 -0.052246854 -0.008432224 0.11535498 -0.11365845

rits_f.temp_decay_x.W f4 [21, 21]
00000000: 0077 2ebb c618 d03d 2845 a63c 7ef5 ad3d
00000010: d2fb cd3d 3a0e 883d 6d40 533e c08f 2a3b
00000020: a502 54be 007a cdb9 1295 f73d 173f 4a3e
00000030: 6694 26be 7861 39be e56d 5c3e 70cf dc3c
00000040: 72f2 12be 8042 283b 4dc9 2b3e 4e25 883d
00000050: 5f52 413e aa94 4abe 2bb0 273e b376 283e
00000060: 92dc b73d 7c24 ebbd 0086 7abd 157f 3f3e
00000070: a091 2cbe 919e 2dbe 7a54 d93d 10e6 443c
00000080: aaf6 ea3d 6e7e 2cbe de7c dd3d 394a 273e
00000090: db3c 14be a6c9 f33d ac2b 403d bc1f 4dbd
000000a0: 983b 3dbe 610c 463e 2144 493e 0474 653d
000000b0: b863 35be b027 afbc a4ea 3e3d 90c3 123c
000000c0: e658 8e3d 726b d33d 1cb1 203d ff62 473e
000000d0: 3081 b1bd 74f4 5f3d cc9c 433d 0aad c6bd
000000e0: 5636 ed3d de53 a5bd 3257 c83d a580 44be
000000f0: 6268 d63d 9ea1 b73d 2946 1a3e 79d8 553e
00000100: d661 873d 4734 3a3e c010 c9bc 2cf0 453d
00000110: da25 da3d 6311 213e 077a 103e f4f0 43bd
00000120: 9cd7 88bd 4047 493b c4d7 36bd 8a2b 883d
00000130: 687c 863c 7c16 173d 7d97 433e eb35 43be
00000140: 0207 0fbe ee81 b3bd d4f2 97bd 66f3 bb3d
00000150: 2c2e 14be a0fa 36be dc02 55be 2b0d 12be
00000160: 5027 35bc 3e37 a4bd 9062 7a3c ac95 21be
00000170: f29b 893d 3454 4a3d 5043 21bd d2d2 1ebe
00000180: 6a9f a03d 9d96 00be 6aad 983d 48fa 893c
00000190: 80fc bcbd d994 263e e24b aebd 8e13 54be
000001a0: 00ea 793b da77 c83d 9657 40be b901 1c3e
000001b0: 0c72 e2bd a0e2 783c 2a85 ff3d 16f8 0cbe
000001c0: a447 72bd d208 d23d cfc6 3e3e ade0 323e
000001d0: 1cf6 55be c70f 163e 4df9 3fbe 2437 95bd
000001e0: d1b1 0fbe c257 b43d 8d2f 0f3e 6aba 873d
000001f0: 0ea2 99bd 8011 86ba 4005 a6bc c076 eabb
00000200: d097 183c 5a68 8d3d e572 27be 7318 263e
00000210: de5c 3dbc 1bfc 48be fc2f bfbd 9ac7 1bbe
00000220: 684f f73c fa63 3abe 9673 58be 78ba 02be
00000230: 1410 083d 7639 86bd fe3e d2bd 7284 843d
00000240: 1b94 0a3e d029 5dbe bc53 81bd 7c6a 5f3d
00000250: b7ac e0bd 0cbd 443d ade8 30be 8478 5f3d
00000260: 25be 413e 22bd c23d 394b 3ebe 5e76 36be
00000270: 2493 7a3d 600a 2dbd 758b 48be 4a55 85bd
00000280: c9ee 203e 9c34 d8bd cb6a 1c3e 70fe 513c
00000290: a5a9 e0bd eaf6 59be fe31 e9bd e687 d23d
000002a0: 3b15 3d3e 13ff 40be 129f f13d 1a9b a1bd
000002b0: 6ba2 373e 4ef9 bd3d 8dce 003e a013 a9bd
000002c0: 4b36 4f3e 6ad7 33be 8ef3 a63d 06ca abbd
000002d0: 6692 f3bd 56de a63d c001 26bd 8f02 263e
000002e0: 4085 37be 5725 453e 0831 e6bd acd5 f1bd
000002f0: 80ab 94bc ae21 ed3d 1504 58be 1c32 023d
00000300: f0b1 edbd 244a 593d 702d 55be 56a5 a33d
00000310: 50e7 aa3c 32cd 863d 6c27 75bc 06ee 3abe
00000320: 49e7 493e f04d df3c ba6a 963d df61 2d3e
00000330: 7261 ac3d 009c 8339 a409 f9bd 4a87 e73d
00000340: 2660 8dbd aaff 9f3d 1b42 12be 0008 bd3b
00000350: 6463 2b3d 12a8 933d 5f17 44be c452 1fbe
00000360: 1096 0abc 08b4 c3bd ac55 76bd 1e10 8a3d
00000370: 3aae c33d d472 703d 114f eebd 828e 0fbe
00000380: 7635 b0bd 16ac 41be d68c de3d 8871 1abd
00000390: ca99 aa3d dc21 0a3d ec33 6e3d 9490 043d
000003a0: 7f91 2cbe abc4 05be f7ce 2d3e 4d87 1c3e
000003b0: 7e9a bf3d 1086 0bbe 4cb0 763d d3a0 3e3e
000003c0: 0f4a 2c3e 5c88 6bbd 978d 353e dd73 0b3e
000003d0: 2b49 f9bd b861 04be aaae 923d 0bb6 1f3e
000003e0: 0077 763b 47fa e4bd 81df 363e 2b31 ccbd
000003f0: 6dc1 5c3e 9f8a 313e afee 0dbe 21c8 403e
-0.0026621222 0.10160975 0.020296648 0.084940895 0.100577965 0.066433385 0.20630045 0.0026025623
-0.20704134 -0.00039191544 0.1208898 0.1975063 -0.16267547 -0.18103588 0.21526296 0.026954383
-0.14350298 0.0025674403 0.16776009 0.0664774 0.18879078 -0.19783273 0.16375796 0.1645153
0.08977617 -0.11481568 -0.06116295 0.18700822 -0.16852427 -0.1695502 0.10611816 0.012017742
0.11472829 -0.16845104 0.10814832 0.16336907 -0.1447634 0.11903696 0.04691665 -0.050079092
-0.18479764 0.1934066 0.19654895 0.056018844 -0.17713821 -0.02138123 0.04661049 0.008957759
0.0695055 0.10323228 0.039231405 0.19471358 -0.08667219 0.054676488 0.047756955 -0.09700973
0.115826294 -0.08072637 0.09782256 -0.19189699 0.10469128 0.08966373 0.15065826 0.20883359
0.066104576 0.18184005 -0.02454412 0.04832475 0.10651751 0.15729289 0.1410905 -0.047837213
-0.06681749 0.0030712634 -0.044639364 0.066489294 0.016416743 0.036886677 0.19100757 -0.19063537
-0.13967517 -0.087650165 -0.07419363 0.09177284 -0.14470738 -0.17869043 -0.20801872 -0.14262836
-0.011056736 -0.08018349 0.015282288 -0.15779752 0.06719197 0.04939671 -0.039370835 -0.15510109
0.07842906 -0.12557454 0.07454951 0.016842976 -0.09227848 0.16267718 -0.08510567 -0.20710585
0.003813386 0.09788485 -0.18783411 0.15235032 -0.11056909 0.01519075 0.12476571 -0.13766512
-0.059150353 0.102555886 0.18630527 0.1746852 -0.20894665 0.14654456 -0.18747444 -0.07285908
-0.14032675 0.08805801 0.13982983 0.066273525 -0.075016126 -0.0010228604 -0.020266175 -0.0071552694
0.009313539 0.06904669 -0.16352423 0.16220264 -0.011557786 -0.1962742 -0.09335324 -0.1521286
0.030189231 -0.182022 -0.21137843 -0.12766445 0.03321846 -0.065539286 -0.10265921 0.064705744
0.1353306 -0.21597981 -0.06314799 0.05454491 -0.10970443 0.04803185 -0.17276259 0.054558292
0.1892019 0.095087305 -0.18583383 -0.17818591 0.06117548 -0.042246222 -0.19584449 -0.06510408
0.1571609 -0.105569094 0.15275113 0.01281701 -0.10969857 -0.21285596 -0.113864884 0.10279827
0.1846513 -0.18847303 0.117979184 -0.078909114 0.17933051 0.09276067 0.12578793 -0.08255696
0.20235555 -0.17562643 0.08151923 -0.08388142 -0.11893158 0.08147876 -0.040529013 0.16211914
-0.17921925 0.19252525 -0.11239821 -0.11808333 -0.018148184 0.115786895 -0.21095307 0.03178607
-0.116062045 0.05304922 -0.20818114 0.0799052 0.020862252 0.06582107 -0.014963012 -0.18254861
0.19717135 0.027258843 0.07344575 0.16931866 0.08417024 0.00025102496 -0.12160042 0.11305101
-0.069031045 0.07812436 -0.1428303 0.005768776 0.041842833 0.07209791 -0.1914954 -0.15558916
-0.008458629 -0.095558226 -0.060140297 0.06741355 0.095547155 0.05870326 -0.116361745 -0.14019206
-0.08603947 -0.18913302 0.10866706 -0.037705928 0.08330114 0.033723697 0.058154985 0.032364443
-0.16852377 -0.13063304 0.16973482 0.15285988 0.09355639 -0.1362536 0.060226724 0.18616037
0.16825126 -0.05750309 0.17729793 0.13618417 -0.12172159 -0.12927902 0.07162221 0.15596788
0.003760755 -0.11180549 0.17858697 -0.099703155 0.21558161 0.17338036 -0.13860582 0.18826343

rits_f.temp_decay_x.b f4 [21]
00000000: 6855 b1bd a37f 38bc d036 233c 1514 1bbe
00000010: bc6f 583e 6339 1dbd 1031 923e fc95 523d
00000020: dc2d d33d 3e79 81bd 900f a13e acbc e13c
00000030: 26d7 323e 516f 703d 003e 5fbe b2b8 97be
00000040: 4a57 c13e 4485 5a3e 2ba5 55bd 4e83 903d
00000050: 4261 34be
-0.08658868 -0.0112609 0.009961799 -0.1514438 0.21136373 -0.038384806 0.28553057 0.051412567
0.10311481 -0.06321953 0.31457186 0.027555786 0.17464885 0.05869991 -0.21800995 -0.296331
0.3776191 0.213399 -0.05215947 0.070562944 -0.17615226

rits_f.temp_decay_x.m f4 [21, 21]
00000000: 0000 803f 0000 0000 0000 0000 0000 0000
00000010: 0000 0000 0000 0000 0000 0000 0000 0000
00000020: 0000 0000 0000 0000 0000 0000 0000 0000
00000030: 0000 0000 0000 0000 0000 0000 0000 0000
00000040: 0000 0000 0000 0000 0000 0000 0000 0000
00000050: 0000 0000 0000 0000 0000 803f 0000 0000
00000060: 0000 0000 0000 0000 0000 0000 0000 0000
00000070: 0000 0000 0000 0000 0000 0000 0000 0000
00000080: 0000 0000 0000 0000 0000 0000 0000 0000
00000090: 0000 0000 0000 0000 0000 0000 0000 0000
000000a0: 0000 0000 0000 0000 0000 0000 0000 0000
000000b0: 0000 803f 0000 0000 0000 0000 0000 0000
000000c0: 0000 0000 0000 0000 0000 0000 0000 0000
000000d0: 0000 0000 0000 0000 0000 0000 0000 0000
000000e0: 0000 0000 0000 0000 0000 0000 0000 0000
000000f0: 0000 0000 0000 0000 0000 0000 0000 0000
00000100: 0000 0000 0000 0000 0000 803f 0000 0000
00000110: 0000 0000 0000 0000 0000 0000 0000 0000
00000120: 0000 0000 0000 0000 0000 0000 0000 0000
00000130: 0000 0000 0000 0000 0000 0000 0000 0000
00000140: 0000 0000 0000 0000 0000 0000 0000 0000
00000150: 0000 0000 0000 0000 0000 0000 0000 0000
00000160: 0000 803f 0000 0000 0000 0000 0000 0000
00000170: 0000 0000 0000 0000 0000 0000 0000 0000
00000180: 0000 0000 0000 0000 0000 0000 0000 0000
00000190: 0000 0000 0000 0000 0000 0000 0000 0000
000001a0: 0000 0000 0000 0000 0000 0000 0000 0000
000001b0: 0000 0000 0000 0000 0000 803f 0000 0000
000001c0: 0000 0000 0000 0000 0000 0000 0000 0000
000001d0: 0000 0000 0000 0000 0000 0000 0000 0000
000001e0: 0000 0000 0000 0000 0000 0000 0000 0000
000001f0: 0000 0000 0000 0000 0000 0000 0000 0000
00000200: 0000 0000 0000 0000 0000 0000 0000 0000
00000210: 0000 803f 0000 0000 0000 0000 0000 0000
00000220: 0000 0000 0000 0000 0000 0000 0000 0000
00000230: 0000 0000 0000 0000 0000 0000 0000 0000
00000240: 0000 0000 0000 0000 0000 0000 0000 0000
00000250: 0000 0000 0000 0000 0000 0000 0000 0000
00000260: 0000 0000 0000 0000 0000 803f 0000 0000
00000270: 0000 0000 0000 0000 0000 0000 0000 0000
00000280: 0000 0000 0000 0000 0000 0000 0000 0000
00000290: 0000 0000 0000 0000 0000 0000 0000 0000
000002a0: 0000 0000 0000 0000 0000 0000 0000 0000
000002b0: 0000 0000 0000 0000 0000 0000 0000 0000
000002c0: 0000 803f 0000 0000 0000 0000 0000 0000
000002d0: 0000 0000 0000 0000 0000 0000 0000 0000
000002e0: 0000 0000 0000 0000 0000 0000 0000 0000
000002f0: 0000 0000 0000 0000 0000 0000 0000 0000
00000300: 0000 0000 0000 0000 0000 0000 0000 0000
00000310: 0000 0000 0000 0000 0000 803f 0000 0000
00000320: 0000 0000 0000 0000 0000 0000 0000 0000
00000330: 0000 0000 0000 0000 0000 0000 0000 0000
00000340: 0000 0000 0000 0000 0000 0000 0000 0000
00000350: 0000 0000 0000 0000 0000 0000 0000 0000
00000360: 0000 0000 0000 0000 0000 0000 0000 0000
00000370: 0000 803f 0000 0000 0000 0000 0000 0000
00000380: 0000 0000 0000 0000 0000 0000 0000 0000
00000390: 0000 0000 0000 0000 0000 0000 0000 0000
000003a0: 0000 0000 0000 0000 0000 0000 0000 0000
000003b0: 0000 0000 0000 0000 0000 0000 0000 0000
000003c0: 0000 0000 0000 0000 0000 803f 0000 0000
000003d0: 0000 0000 0000 0000 0000 0000 0000 0000
000003e0: 0000 0000 0000 0000 0000 0000 0000 0000
000003f0: 0000 0000 0000 0000 0000 0000 0000 0000
1.0 0.0 0.0 0.0 0.0 0.0 0.0 0.0
0.0 0.0 0.0 0.0 0.0 0.0 0.0 0.0
0.0 0.0 0.0 0.0 0.0 0.0 1.0 0.0
0.0 0.0 0.0 0.0 0.0 0.0 0.0 0.0
0.0 0.0 0.0 0.0 0.0 0.0 0.0 0.0
0.0 0.0 0.0 0.0 1.0 0.0 0.0 0.0
0.0 0.0 0.0 0.0 0.0 0.0 0.0 0.0
0.0 0.0 0.0 0.0 0.0 0.0 0.0 0.0
0.0 0.0 1.0 0.0 0.0 0.0 0.0 0.0
0.0 0.0 0.0 0.0 0.0 0.0 0.0 0.0
0.0 0.0 0.0 0.0 0.0 0.0 0.0 0.0
1.0 0.0 0.0 0.0 0.0 0.0 0.0 0.0
0.0 0.0 0.0 0.0 0.0 0.0 0.0 0.0
0.0 0.0 0.0 0.0 0.0 0.0 1.0 0.0
0.0 0.0 0.0 0.0 0.0 0.0 0.0 0.0
0.0 0.0 0.0 0.0 0.0 0.0 0.0 0.0
0.0 0.0 0.0 0.0 1.0 0.0 0.0 0.0
0.0 0.0 0.0 0.0 0.0 0.0 0.0 0.0
0.0 0.0 0.0 0.0 0.0 0.0 0.0 0.0
0.0 0.0 1.0 0.0 0.0 0.0 0.0 0.0
0.0 0.0 0.0 0.0 0.0 0.0 0.0 0.0
0.0 0.0 0.0 0.0 0.0 0.0 0.0 0.0
1.0 0.0 0.0 0.0 0.0 0.0 0.0 0.0
0.0 0.0 0.0 0.0 0.0 0.0 0.0 0.0
0.0 0.0 0.0 0.0 0.0 0.0 1.0 0.0
0.0 0.0 0.0 0.0 0.0 0.0 0.0 0.0
0.0 0.0 0.0 0.0 0.0 0.0 0.0 0.0
0.0 0.0 0.0 0.0 1.0 0.0 0.0 0.0
0.0 0.0 0.0 0.0 0.0 0.0 0.0 0.0
0.0 0.0 0.0 0.0 0.0 0.0 0.0 0.0
0.0 0.0 1.0 0.0 0.0 0.0 0.0 0.0
0.0 0.0 0.0 0.0 0.0 0.0 0.0 0.0

rits_f.hist_reg.weight f4 [21, 64]
00000000: f2f1 74bd aa79 9c3e 3724 32bd 6b26 90bb
00000010: d97c 573e df3f 4c3e 5c00 ccbc d594 6d3e
00000020: 9260 69be db5c 5e3e 138c 5dbe e6ae 5fbb
00000030: dfb5 a7be 7379 1fbe 368f 3c3e 511e 5f3e
00000040: fd47 123e 8d41 29be eb32 e9bd 3f1b 41bc
00000050: dcd8 cd3d b20c 64bd 5d4d bfbd 420e 5c3e
00000060: df06 44be 8700 ad3b 5a59 09bf 0223 a03e
00000070: 1bda 0cbe 6d2d a3be a20f 8d3e 13ae e6bd
00000080: c4be b53e 4adb 98be 7f7f 53be 42d8 20be
00000090: 2da9 4c3e 45aa 31be 03ea 9a3d 3d40 b73e
000000a0: 578f 80be ca45 9e3e 0d28 ec3d 60c8 3c3e
000000b0: b15c 223f 6a82 6a3e 40ba 043f a44e cdbc
000000c0: d070 7f3e 7e13 ed3e 77ef a5be 84bd 753e
000000d0: aa1c 11be 4a50 9c3e 6018 94bd 5905 ad3e
000000e0: 3463 bf3e 9704 8e3d 4f9c 30be 4d71 40be
000000f0: 4cb4 d8bd d97d a3be 3068 e4bc 1bd7 193e
00000100: 7f4f c63d 4589 ae3e de4e e63d f835 e13d
00000110: cf63 f93d 886f 8d3e 9c1b fbbc ad87 043e
00000120: ad3a 99be b9a1 343e 74d5 7cbe 582b 863b
00000130: d5d4 01bf ab7b b7bd 6da3 733e fe52 6e3e
00000140: c25e ea3d f8f4 35be d9ab 0cbe 1703 29be
00000150: 3740 373e 8213 d43d 1050 0d3d 0851 d03e
00000160: add1 86be 567f 0cbe 38f4 2bbf 91ee ba3e
00000170: 949d 94be 0fff bbbe d01f 4f3e 6f86 3d3d
00000180: ccd5 843e ea36 bebe 9a86 6abe 3e67 12be
00000190: 1238 0f3f ceef 5bbe 8cd6 abbe acde da3e
000001a0: 27c4 62be cc32 013e 3ae0 753e d79c 393e
000001b0: e752 4d3f 74b0 a63e 22c1 ee3e 8361 833d
000001c0: 8014 c23e 8cfc 373f 33dd 90be 33a4 ac3e
000001d0: 0c55 51be c923 853e 391a 873d 34e2 e43d
000001e0: a697 0a3f 604c 5ebd 6c3d 37be 93e6 ddbe
000001f0: e131 17be a7db b8be 0d41 09bd 3d8a 793e
00000200: 602f 8cbc d610 9e3e 42d3 72bc 8dbc f7bc
00000210: c61f 3e3e 9dfc 693e 4937 93bc 001b 863e
00000220: 499b 4dbe 0c97 623e cd3e 66be 93c6 55bb
00000230: 14f6 adbe 39af 33be 3cd6 473e ce04 3c3e
00000240: ff5b 0b3e 37c8 06be b2b2 b2bd 3b6a bebb
00000250: 83be d83d 5dc5 16bd 0455 0bbe 3390 563e
00000260: 75f4 33be 99f2 763c a7f5 0bbf fbf1 c13e
00000270: 661b 00be ca5f 9bbe eda0 853e 1233 92bd
00000280: aa56 a83e 3e36 83be 804a 67be 8de7 21be
00000290: 9d8c 553e 49c9 53be 1fda 5b3c ec2f b13e
000002a0: 35c1 89be f8fa 9f3e fdbf b83d fc69 483e
000002b0: c5a4 1b3f fbd5 733e 1ee5 013f b2fb 72bd
000002c0: 23dc 8a3e c02b e13e 469e 87be 3794 813e
000002d0: 0526 2abe 042e 693e 51c4 adbc 01c1 be3e
000002e0: d12c c63e 4894 863d 3a30 38be a95e 4bbe
000002f0: d922 ccbd dcbc a7be 3d7e ccbc 22fc 003e
00000300: 932f 10be 3a93 863e cf75 2bbe 3b14 70bd
00000310: e4ba 643e dc4b 0d3e 6f4b 33bd 3247 963e
00000320: a71e 0dbe 97ca 743e b6c4 40be 1170 1fbc
00000330: 35ae 3cbe 9dcd 3ebe fd03 033e 69e6 463e
00000340: e842 203e cb5c 04be f460 5fbd 5fed 983d
00000350: ef42 5a3c 8115 01be 428b 34be 90e8 413d
00000360: 1e45 24be 76fe da3d d3d1 d4be 2702 883e
00000370: 6b09 96bc 47f6 94be b355 943e 3bb8 39be
00000380: 442a bf3e 70fb 6bbe 144a 2bbe bd04 28be
00000390: 61b1 8bbd fee8 2bbe 6976 ac3e d62a 923e
000003a0: a688 84be 9251 d53e 06d9 03bb 6ddc 1f3e
000003b0: d3b5 ee3e 61f0 1e3e 5c97 063f ee3e 0abe
000003c0: 8254 2a3e ecb7 883e 3b0a a9be 4e4c 2e3e
000003d0: b82b e4bd 53cc 9b3e 9ca0 1abe ffd0 f83e
000003e0: 4086 8d3e a2ec 023e f950 14be 631d 1ebd
000003f0: 1917 6ebd 4d7f 8ebe 0878 40bc 5b65 903d
-0.05980105 0.30561572 -0.04349157 -0.004399111 0.2104372 0.1994624 -0.024902515 0.23201306
-0.22790745 0.21715109 -0.21635465 -0.0034131347 -0.32755944 -0.15573673 0.18414006 0.21788909
0.14285274 -0.16528912 -0.11386665 -0.011786281 0.10051128 -0.05567617 -0.09340928 0.21489814
-0.19143246 0.005279604 -0.53651965 0.3127671 -0.13755076 -0.31870595 0.2755099 -0.11263671
0.35497105 -0.29854804 -0.20654105 -0.15707496 0.1998641 -0.17350109 0.075641654 0.35791197
-0.2510936 0.3091262 0.115310766 0.18435812 0.63422686 0.22901312 0.51846695 -0.025061913
0.24945378 0.46303934 -0.3240926 0.23998076 -0.1417109 0.30530006 -0.07231212 0.33793142
0.37380373 0.06934469 -0.17247127 -0.18793221 -0.10581264 -0.31931952 -0.027881712 0.15023462
0.096831314 0.34089103 0.112455115 0.10996622 0.1217724 0.27624154 -0.030652814 0.12942381
-0.2992758 0.17639817 -0.24690801 0.0040945224 -0.5071538 -0.08959135 0.2379281 0.23273847
0.11443855 -0.1776923 -0.1373743 -0.16505085 0.1789559 0.10355283 0.03450018 0.40686822
-0.26331845 -0.1372045 -0.67169523 0.36510137 -0.29026473 -0.36718032 0.2022698 0.046270784
0.25944364 -0.3715127 -0.22902909 -0.14297196 0.5594493 -0.21478197 -0.33562124 0.4274801
-0.22145139 0.12617034 0.24011317 0.18126236 0.80204624 0.32556498 0.46631724 0.06415083
0.37906265 0.7186973 -0.28293762 0.33719024 -0.20442599 0.26003864 0.065967984 0.11175957
0.5413765 -0.054272056 -0.17894524 -0.43339977 -0.14765121 -0.3610508 -0.033509303 0.2436914
-0.017112434 0.3087222 -0.014820876 -0.030241275 0.18566808 0.2285027 -0.017970698 0.26192474
-0.20078768 0.22127932 -0.22484894 -0.003261958 -0.33976805 -0.17547311 0.19515318 0.18361208
0.13609312 -0.13162313 -0.0872549 -0.0058110035 0.10583212 -0.036809314 -0.1360665 0.20953445
-0.17573722 0.015072488 -0.5467171 0.3787993 -0.12510452 -0.3034652 0.2609934 -0.07138647
0.3287862 -0.2562732 -0.22587013 -0.15810986 0.20854421 -0.20682253 0.013418703 0.34606874
-0.26905218 0.3124616 0.09020994 0.1957168 0.60798293 0.23812096 0.5074023 -0.059322067
0.27121076 0.4397869 -0.2648794 0.2530839 -0.16616066 0.2277146 -0.021211775 0.37256625
0.38706067 0.06571251 -0.17987147 -0.19860329 -0.09967584 -0.32761276 -0.024962539 0.12596181
-0.14080648 0.262842 -0.16744159 -0.058613043 0.22336918 0.1379847 -0.04377311 0.29351193
-0.13781224 0.23905407 -0.1882504 -0.009731309 -0.1842583 -0.18633123 0.1279449 0.19423832
0.15650523 -0.12926023 -0.05453582 0.0746715 0.013321622 -0.1260586 -0.17631248 0.04734093
-0.16041991 0.10693066 -0.41566333 0.26564142 -0.018315038 -0.29094145 0.28971633 -0.18136685
0.37336934 -0.23045135 -0.16727477 -0.16408058 -0.06820942 -0.16788098 0.3368409 0.28548306
-0.25885504 0.41663796 -0.002011837 0.1561143 0.46623096 0.15521385 0.52574706 -0.13500568
0.166338 0.2670282 -0.33015618 0.17021295 -0.11141151 0.30429325 -0.1510033 0.4859695
0.27641487 0.12785581 -0.14484014 -0.038602244 -0.058127496 -0.27831498 -0.011747368 0.07050582
